example/models/nfm.pt (torch, 688608 bytes, 22 tensors)

linear.fc.weight f4 [9969, 1]
0	0xbf0a9ffd	-0.5415037
1	0x3f5582fd	0.83403
2	0xbf8d4a56	-1.103831
3	0x3f45512b	0.7707698
4	0xbfadc736	-1.3576419
5	0x3e661dd9	0.22472323
6	0xbee77c42	-0.4521199
7	0xbf781397	-0.9690489
8	0xbddae9ee	-0.1068915
9	0x3f34876a	0.70519125
10	0x3ebc2af2	0.36751515
11	0xbf9d1d42	-1.2274554
12	0xbe787b85	-0.24265869
13	0xbe44ebbc	-0.1923055
14	0xbf49dc11	-0.7885142
15	0x3eb64e9e	0.35606855
16	0x3f7d4ee4	0.989485
17	0x3e564444	0.20924479
18	0xbfd483e4	-1.660275
19	0x3f9c5855	1.2214457
20	0xbe17055a	-0.14748135
21	0x3f37c020	0.71777534
22	0x3d636f6e	0.05552619
23	0x3f55d9d8	0.8353553
24	0x3f2e0b5b	0.6798608
25	0x3e518db9	0.20464219
26	0xbe84f13b	-0.25965294
27	0xbd99d638	-0.07511562
28	0x3e5423f0	0.20716834
29	0x3db26029	0.08709747
30	0xbed15efc	-0.4089278
31	0x3f7da116	0.9907392
32	0xbf9569ae	-1.1672876
33	0x3f62d95b	0.8861291
34	0x3ecd879e	0.4014253
35	0x3f1f6d6c	0.6227634
36	0x3fadb456	1.3570659
37	0x3f6b0a86	0.9181293
38	0xbf08b19d	-0.53396016
39	0xbf13ddfd	-0.577606
40	0x3f1c9dd1	0.6117831
41	0xbf5ab619	-0.8543411
42	0x3f66802a	0.9003931
43	0x3e52206e	0.20520183
44	0x3f784f7d	0.9699629
45	0xbf39f2e6	-0.7263626
46	0xbf94f80f	-1.1638201
47	0x3f28c639	0.65927464
48	0x3fdb512f	1.713415
49	0xbf5c39eb	-0.86025876
50	0x3c6e3329	0.014538565
51	0xbf3ad301	-0.72978216
52	0xbf523c70	-0.8212347
53	0xbf0e072f	-0.5547971
54	0xbf896abc	-1.0735698
55	0xbfa93aa7	-1.3221024
56	0xbe9cd467	-0.306308
57	0x3e46d672	0.19417742
58	0xbd504b09	-0.05085281
59	0x3f38387b	0.7196118
60	0xbed06007	-0.40698263
61	0x3e1027bd	0.14077659
62	0x3f60869b	0.8770539
63	0x3f23cda0	0.63985634
64	0x3ebe340a	0.37149078
65	0xbfc3e2b2	-1.5303557
66	0x3f24b92b	0.64345044
67	0x3dc123ba	0.094306424
68	0xbf97e9b2	-1.1868193
69	0x3c96451d	0.018343503
70	0x3f8e23ac	1.1104636
71	0x3f86218e	1.047899
72	0xbf957348	-1.1675806
73	0x3f854026	1.0410202
74	0xbc80db64	-0.015729614
75	0xbdea3ced	-0.11437402
76	0xbf2ad951	-0.6673785
77	0xbf371cbb	-0.71528214
78	0xbf923c11	-1.1424581
79	0x3e19a5b1	0.15004613
80	0x3f4b928c	0.7952049
81	0x3fdb5700	1.7135925
82	0xbef47a98	-0.47749782
83	0xbf9412fe	-1.1568296
84	0xbe93953f	-0.28824803
85	0xbef5c62d	-0.4800276
86	0xbfdf87bb	-1.7463297
87	0x3fa97b30	1.3240719
88	0xbf1f0c6f	-0.6212835
89	0xbf2b9e94	-0.67038846
90	0xbebb00b5	-0.36523977
91	0x3ecc2adb	0.39876446
92	0x3eaeae59	0.34117392
93	0xbf31c317	-0.6943831
94	0xbf612b2a	-0.8795649
95	0x3f5cf40f	0.86309904
96	0x3fb4b715	1.4118372
97	0xbdfdcc4d	-0.12392483
98	0xbdd3d7b8	-0.103438795
99	0x3f9c64f8	1.2218313
100	0xbf7daea8	-0.9909463
101	0x3f57a78c	0.8424003
102	0xbf607c45	-0.8768962
103	0x3fa72080	1.3056793
104	0xbe1ae7b4	-0.1512745
105	0xbf1e7ea9	-0.6191202
106	0xbe98cbcf	-0.29842994
107	0x3f9d77f7	1.2302235
108	0xbfac75c3	-1.3473438
109	0xbf5df3bd	-0.8670004
110	0xbed8faea	-0.42378932
111	0x3f3e0ffa	0.7424313
112	0x3f2f9da2	0.68599904
113	0xbf4da9f8	-0.80337477
114	0x3d1a5614	0.037679747
115	0xbf06d711	-0.52671915
116	0xbfa58a1b	-1.2932771
117	0xbf610a6a	-0.87906516
118	0xbf850f6e	-1.0395334
119	0xbfcec036	-1.6152408
120	0x3ec01ee2	0.37523562
121	0xbf1c06f4	-0.6094811
122	0x3e6b5e88	0.2298528
123	0x3f5458c6	0.8294796
124	0xbcf48163	-0.029846853
125	0x3e37f0f9	0.17963018
126	0xbdfda5fb	-0.12385174
127	0x3f795561	0.973959
128	0xbf607790	-0.8768244
129	0x3f9b426d	1.2129647
130	0x3e94b56e	0.2904467
131	0xbe9497da	-0.29022104
132	0xbd6d9dd0	-0.05801183
133	0xbfe79384	-1.8091893
134	0xbf11a4b3	-0.56891936
135	0xbfbc4cc8	-1.4710932
136	0x3ec9a50f	0.39383742
137	0x3e2c17df	0.16805981
138	0x3d28f582	0.04124976
139	0xbd84f489	-0.06491954
140	0x3f704588	0.93856096
141	0xbf1fc53c	-0.6241033
142	0x3f34c92d	0.7061947
143	0xbfa99765	-1.3249327
144	0xbf118e0e	-0.56857383
145	0xbd2168f9	-0.03940675
146	0x3f0161df	0.50539964
147	0x3e5a7948	0.21335328
148	0x3e774110	0.24145913
149	0xbf0c341d	-0.5476702
150	0x3e7d836f	0.24757169
151	0x3fa35079	1.2758933
152	0xbd0451bb	-0.032304507
153	0xbe85bb0a	-0.26119262
154	0x3f8f7444	1.1207356
155	0xbf151c61	-0.5824643
156	0xbf23d6dd	-0.6399973
157	0x3fa1b121	1.263218
158	0x3f534299	0.82523495
159	0x3e15d7b8	0.14633071
160	0xbc17632e	-0.009239955
161	0xbe7a6c1b	-0.24455301
162	0xbdca5f4b	-0.09881457
163	0xbea6a0df	-0.3254461
164	0x3dba0887	0.09083658
165	0x3f03d0f7	0.5149073
166	0xbf8e7c39	-1.113166
167	0x3f11059f	0.566492
168	0x3f8c8215	1.0977198
169	0xbd001808	-0.031272918
170	0x3f8ce903	1.100861
171	0xbf358739	-0.7090946
172	0xbf8ad921	-1.0847512
173	0x3e893659	0.26799276
174	0x3f70507c	0.9387281
175	0xbe16b18e	-0.14716169
176	0xbeb36e61	-0.3504515
177	0x3f786205	0.97024566
178	0xbf2b2230	-0.6684904
179	0x3f1ef0f4	0.62086415
180	0x3f853ac5	1.040856
181	0xbfb1d1d8	-1.3892164
182	0x3ead8338	0.33889174
183	0x3fe8e3e4	1.8194547
184	0x3ea569c5	0.32307258
185	0x3e297ea5	0.16552217
186	0x3f579d69	0.84224564
187	0x3e9c4ab0	0.30525732
188	0xbfd1fc7e	-1.640518
189	0xbee5b27f	-0.44862744
190	0xbf1d0cd1	-0.6134768
191	0x3f0d72d7	0.55253357
192	0x3fb0cb35	1.3812014
193	0x3e57859a	0.21047059
194	0xbf871391	-1.0552846
195	0xbaaa7281	-0.0013004096
196	0xbf743e9a	-0.9540802
197	0xbdbeea6d	-0.09322057
198	0xbf2b6d4f	-0.66963667
199	0xbf3e7a2d	-0.74405175
200	0x3c25d8f0	0.010122523
201	0xbf890923	-1.0705913
202	0x3fa2640d	1.2686783
203	0x3e9beccc	0.304541
204	0xbc23454b	-0.009965251
205	0xbe8487b1	-0.25884774
206	0xbf357ea2	-0.7089635
207	0xbf2d1358	-0.6760764
208	0x3e9e493e	0.30915254
209	0x3bdd4d7f	0.006753623
210	0xbf4fad17	-0.8112349
211	0xc02382dd	-2.5548623
212	0x3e86f951	0.26362088
213	0xbfa82ec4	-1.3139272
214	0x3f81abcf	1.0130557
215	0xbfa80a55	-1.3128153
216	0x3e6367a8	0.2220751
217	0xbea93537	-0.33048412
218	0x3eee3286	0.4652292
219	0x3f3287ca	0.6973845
220	0xbf451ab3	-0.76993865
221	0x3eb680ab	0.3564504
222	0xbf1fa8c1	-0.62366873
223	0xbf36cf15	-0.7140973
224	0xbf25c179	-0.6474834
225	0x3fc61d2b	1.5477651
226	0x3faa3710	1.3298054
227	0xbef98393	-0.48733196
228	0x3eafd3d2	0.34341294
229	0x3fea9ae1	1.8328515
230	0xbfc7a035	-1.5595766
231	0xbec9f02c	-0.3944105
232	0xbe1ab903	-0.15109639
233	0xbf9c7869	-1.2224246
234	0xbf3cfd39	-0.7382389
235	0x3d659ad5	0.056055862
236	0x3f6df95b	0.9295861
237	0xbec4ad30	-0.38413382
238	0x3f9dff82	1.23436
239	0x3ea14277	0.3149602
240	0xbf1ce0b5	-0.61280376
241	0xbf562543	-0.83650607
242	0x3ea7d9d8	0.3278339
243	0x3f1b0b15	0.60563785
244	0x3f0e6de1	0.5563641
245	0xbba1cc84	-0.0049377102
246	0xbfa6364e	-1.2985322
247	0xbe12e3af	-0.14344667
248	0xbf674248	-0.9033551
249	0x3e6556cf	0.22396396
250	0x3e16cccf	0.14726566
251	0xbef6a269	-0.48170784
252	0xbe991dbc	-0.29905498
253	0x3f19578e	0.5989922
254	0x3f3733ca	0.715634
255	0xbf203703	-0.6258394

fm.1.weight f4 [16]
0	0x3f80a0f5	1.004912
1	0x3f683982	0.9071275
2	0x3f5d748d	0.8650597
3	0x3f78a327	0.9712395
4	0x3f77a309	0.96733147
5	0x3f7544cb	0.95808095
6	0x3f800dc8	1.0004206
7	0x3f986147	1.1904687
8	0x3f8744d0	1.0567875
9	0x3f668885	0.9005206
10	0x3f4d4e22	0.80197346
11	0x3f8c5ce2	1.0965846
12	0x3f8721c0	1.0557175
13	0x3f7a3141	0.97731405
14	0x3f7bd2e3	0.9836866
15	0x3f6cf11a	0.9255539

fm.1.bias f4 [16]
0	0x3e2d1865	0.16903837
1	0xbe38e1d8	-0.18054903
2	0xbe0dc93e	-0.13846299
3	0x3e429199	0.19000854
4	0xbe58beb6	-0.211665
5	0xbe22aa17	-0.15885197
6	0x3e380c18	0.17973363
7	0x3e9925d7	0.29911682
8	0x3e9b25b6	0.3030221
9	0x3e325b42	0.17417625
10	0xbe393d08	-0.18089688
11	0xbe6b0012	-0.22949246
12	0x3eb8e759	0.36114004
13	0xbe3c9e5b	-0.18419783
14	0x3d9b00dc	0.07568523
15	0x3e4ef96d	0.20212336

fm.1.running_mean f4 [16]
0	0x3ae79600	0.0017668605
1	0xbc7e2732	-0.015512275
2	0xbadd92e0	-0.0016904734
3	0x3b960c9e	0.004579141
4	0xbb83c6b4	-0.00402149
5	0xbaefa5b6	-0.0018283639
6	0xbb5bf144	-0.0033560554
7	0x3bcb5cd5	0.006206135
8	0x3ca1b029	0.01973732
9	0x3b3ce97a	0.0028825686
10	0xbbfeb8e3	-0.007773505
11	0x3cf124ed	0.029436553
12	0x3ba344ce	0.0049825674
13	0xbcf19c16	-0.029493373
14	0xba38dd6a	-0.0007052036
15	0x3b03fad5	0.0020138521

fm.1.running_var f4 [16]
0	0x3a0726d3	0.00051556266
1	0x3a3a1e7b	0.0007099879
2	0x3a176e09	0.00057765894
3	0x3a8dbe52	0.0010814166
4	0x3a789681	0.0009482876
5	0x3a0f861a	0.0005475
6	0x3a145149	0.00056578644
7	0x3a94d6e3	0.0011355545
8	0x3b1b35f3	0.002368328
9	0x3a937dec	0.0011252738
10	0x3a97c595	0.001157927
11	0x3c3ec414	0.011643428
12	0x3abbc89f	0.0014326758
13	0x3ac1afe1	0.0014777147
14	0x3ad5d0a4	0.001631279
15	0x3a4cc561	0.0007811394

u_embedding.embedding.weight f4 [6038, 16]
0	0x3c45e8e3	0.01207945
1	0xbd1a3e6d	-0.03765719
2	0xbe720c53	-0.23637514
3	0xbd71162d	-0.05885904
4	0xbe28371c	-0.16427273
5	0x3e4d7cb2	0.20067099
6	0xbdaeb862	-0.08531262
7	0x3e42d042	0.19024757
8	0x3e5d258e	0.21596357
9	0xbe012693	-0.12612371
10	0xbe0aa0eb	-0.13537948
11	0xbd3ce5f1	-0.046117727
12	0xbdd52ccb	-0.10408934
13	0x3d9b19cc	0.0757328
14	0x3e550999	0.20804442
15	0xbe5c7ff3	-0.21533184
16	0xbd68a9e0	-0.05680263
17	0xbdf11d93	-0.11773219
18	0xbe432b53	-0.19059496
19	0x3e8b173b	0.2716616
20	0xbe3851f3	-0.18000011
21	0xbd491b05	-0.049098033
22	0x3da5e395	0.081000485
23	0x3ca30d71	0.01990387
24	0x3e0cacf2	0.13737848
25	0xbe1188bd	-0.14212318
26	0x3da550a7	0.08072024
27	0xbdd4b70c	-0.10386476
28	0x3d310b04	0.043223396
29	0x3d50ab8c	0.05094485
30	0x3e5229d9	0.20523776
31	0x3e879c40	0.26486397
32	0xbc9aa4f1	-0.018877478
33	0xbd7162af	-0.058932003
34	0xbe225f09	-0.15856566
35	0x3d5d71f5	0.054063756
36	0xbe927dcc	-0.286116
37	0x3cae0da0	0.021246731
38	0x3dbdc10d	0.09265337
39	0xbd56ca82	-0.05243922
40	0x3b8a3654	0.004217902
41	0xbd48a395	-0.04898413
42	0x3ea74423	0.32669172
43	0x3bb18b77	0.005418237
44	0xbcc6bc51	-0.024259718
45	0x3d7e9176	0.06215044
46	0xbde54a77	-0.11195844
47	0x3e66d965	0.22543867
48	0xbe8ddfce	-0.27709812
49	0xbd94dd7a	-0.07268806
50	0xbe141319	-0.1446041
51	0x3ea3e3e1	0.32009795
52	0xbd9bf06c	-0.07614216
53	0x3d0f88d7	0.03504261
54	0x3d5bea84	0.05369045
55	0x3e158399	0.14600982
56	0x3eab9c3b	0.33517632
57	0x3c8dc790	0.017307073
58	0x3e515aa9	0.2044474
59	0xbe5c5997	-0.21518551
60	0xbdac48f1	-0.0841235
61	0xbe437e77	-0.19091211
62	0x3e54f0d0	0.20794988
63	0x3de1d6c1	0.11027289
64	0x3ea9d741	0.33172038
65	0x3d89ada0	0.067225695
66	0xbe9191aa	-0.28431445
67	0x3e20d4f2	0.15706232
68	0xbcec8b00	-0.028874874
69	0x3e697cee	0.22801563
70	0x3d5b4f3e	0.053542368
71	0x3e20c0bf	0.15698527
72	0xbde42b71	-0.11141098
73	0xbdfcb588	-0.12339312
74	0xbd829ab2	-0.06377162
75	0x3de04246	0.10950141
76	0xbd090072	-0.03344769
77	0xbe30656c	-0.1722619
78	0x3d63d4fc	0.05562304
79	0xbe45112d	-0.19244833
80	0xbdb81200	-0.08987808
81	0xbdc235d9	-0.09482927
82	0xbe53d44c	-0.20686454
83	0xbe87ab7f	-0.2649803
84	0xbe74f2f7	-0.23920809
85	0xbd190fa2	-0.037368424
86	0xbc197ee2	-0.00936863
87	0xbd79e727	-0.06101146
88	0x3dbea2b3	0.09308376
89	0x3d8c2fed	0.068450786
90	0x3b0be654	0.0021347003
91	0xbc68f2a6	-0.014218008
92	0xbe244c6f	-0.16044782
93	0xbc960700	-0.018313885
94	0x3d63ac3a	0.05558417
95	0xbbe84539	-0.00708833
96	0xbe712103	-0.23547749
97	0xbe8a9230	-0.27064657
98	0xbe5b4337	-0.21412359
99	0x3ea1d874	0.31610453
100	0xbdb79c01	-0.08965302
101	0xbcff73c0	-0.031183124
102	0x3ea4d753	0.3219553
103	0xbe2927fd	-0.1651916
104	0x3eb79e31	0.35862878
105	0xbd743734	-0.05962296
106	0x3e44ea6c	0.1923005
107	0xbe073192	-0.13202503
108	0xbd89a2c9	-0.06720502
109	0xbdad96c6	-0.084760234
110	0x3dcc9cd3	0.09990849
111	0x3e3692d4	0.17829448
112	0x3e5b3708	0.21407712
113	0x3d07c7cc	0.033149526
114	0xbe030eea	-0.12798658
115	0x3dea3e95	0.11437718
116	0xbe7b3335	-0.24531253
117	0x3dad5149	0.084627695
118	0x3e8db26e	0.27675194
119	0x3e422a21	0.18961383
120	0xbd63b47f	-0.055592056
121	0xbef6f405	-0.48233047
122	0xbeac01d6	-0.3359515
123	0xbb628b04	-0.0034567723
124	0x3e36d914	0.17856246
125	0x3e434026	0.1906744
126	0x3e46104e	0.19342157
127	0xbc568295	-0.013092657
128	0x3e775b7f	0.24155997
129	0xbc6dd1e0	-0.01451537
130	0xbe2f014e	-0.17090341
131	0x3cf856a7	0.030314757
132	0xbe67481a	-0.22586098
133	0x3ce95b24	0.028485842
134	0x3d923a2b	0.07140001
135	0x3e28e865	0.16494901
136	0x3e3feb24	0.18742043
137	0xbd0c6914	-0.034279898
138	0xbc7c9e7d	-0.015418646
139	0xbe0b34f2	-0.13594416
140	0xbe38c2a2	-0.18042997
141	0x3d741cda	0.059597827
142	0x3e10579d	0.14095922
143	0x3cd474fa	0.025934685
144	0xbe47a240	-0.19495487
145	0x3bab2cf1	0.0052238633
146	0xbe277463	-0.16352992
147	0xbe05b980	-0.13059044
148	0xbe3e65a9	-0.18593468
149	0x3d87d989	0.066332884
150	0xbd936d89	-0.071986265
151	0xbe05445e	-0.13014361
152	0x3e2d9f67	0.16955338
153	0xbe67ad52	-0.2262471
154	0x3e09edb7	0.13469587
155	0xbd65fd2b	-0.056149643
156	0xbc10e994	-0.008844752
157	0x3e0764aa	0.13221994
158	0x3e324774	0.1741007
159	0xbd1c42f6	-0.038149796
160	0x3e707c6c	0.23484963
161	0x3d93799e	0.07200931
162	0xbe305f52	-0.17223862
163	0x3ea5bc4d	0.32370225
164	0xbdac6923	-0.08418491
165	0xbda7f640	-0.08201265
166	0xbdf5ace1	-0.11995865
167	0xbd85f964	-0.06541708
168	0x3dd288af	0.102799766
169	0xbe6df04a	-0.23236194
170	0x3e1f7159	0.15570582
171	0xbd0a0afc	-0.03370188
172	0x3d9b5796	0.07585065
173	0x3d106fc9	0.035262857
174	0xbdcdb7b4	-0.10044804
175	0xbd369c5c	-0.04458271
176	0xbd33d5a3	-0.04390491
177	0x3dfb4be7	0.122703366
178	0x3c2cc3b0	0.010544702
179	0xbdbd54da	-0.092447
180	0x3e1c1c23	0.15245108
181	0x3e19b8c3	0.15011887
182	0xbe46c1e0	-0.19409895
183	0x3e0ca173	0.13733463
184	0xbdbf92c4	-0.09354165
185	0x3d5720be	0.05252146
186	0x3e118671	0.14211442
187	0x3de0daea	0.109792545
188	0xbcbee533	-0.02330265
189	0x3d2b1188	0.041764766
190	0x3e5773e5	0.21040304
191	0xbd93c45f	-0.07215189
192	0xbe265668	-0.16243899
193	0xbb3c0e85	-0.0028695178
194	0xbe81af17	-0.25328895
195	0x3b59fa84	0.0033260891
196	0xbd9add92	-0.075617924
197	0xbc5e8065	-0.013580416
198	0x3e3e82c5	0.18604572
199	0xbe492959	-0.19644679
200	0x3caedf54	0.021346726
201	0xbe873af9	-0.2641218
202	0x3ea571d0	0.32313395
203	0xbcd490bc	-0.025947921
204	0xbe2d0de2	-0.16899827
205	0xbda1b804	-0.07896426
206	0x3dfd5be6	0.12371044
207	0x3ea27f4f	0.31737754
208	0x3d9e72fe	0.07736777
209	0xbd9d746f	-0.076882236
210	0x3c9b5428	0.018961027
211	0x3e24953e	0.16072556
212	0xbdb7e420	-0.08979058
213	0xbd940524	-0.07227543
214	0x3da9202b	0.08258089
215	0x3df3a609	0.11896903
216	0x3e607c0f	0.21922325
217	0x3da84063	0.08215406
218	0xbe062ade	-0.1310229
219	0xbd292b03	-0.041300785
220	0x3b399301	0.002831638
221	0x3a2db182	0.0006625877
222	0x3d1225ae	0.035680465
223	0xbd4fb5ab	-0.05071036
224	0x3e025560	0.1272788
225	0x3dcdf1da	0.10055895
226	0xbe854e3d	-0.26036254
227	0x3dd4b9c4	0.103869945
228	0xbe5fcbfd	-0.21855159
229	0x3db3884d	0.08766232
230	0x3ec773a9	0.3895543
231	0xbcb4dd65	-0.022078225
232	0x3e02774d	0.12740822
233	0x3e9bf81e	0.30462736
234	0xbe04ea7a	-0.1298007
235	0x3c9b05b4	0.018923618
236	0x3d12cb26	0.03583827
237	0x3e696b4d	0.22794838
238	0xbd1e943f	-0.038715597
239	0xbc14ba22	-0.009077581
240	0x3dd1e0c0	0.10247946
241	0xbdcc8d86	-0.09987931
242	0xbe0dbb64	-0.13841015
243	0x3da148e9	0.07875235
244	0xbeb92417	-0.36160347
245	0xbe0196ca	-0.12655178
246	0x3d50c63f	0.050970312
247	0xbd0265b5	-0.031835277
248	0x3e4cb5bf	0.19991206
249	0x3de16cf2	0.11007108
250	0x3d76e973	0.06028123
251	0xbc8f02e7	-0.017457439
252	0x3de26cf2	0.11055936
253	0xb798b8b8	-1.8205828e-05
254	0xbd195650	-0.03743583
255	0xbd1801f6	-0.037111245

i_embedding.embedding.weight f4 [3883, 16]
0	0xbe08d36e	-0.13361904
1	0x3e1c3625	0.1525503
2	0xbecdc892	-0.40192086
3	0xbe26b885	-0.16281326
4	0xbe416307	-0.18885432
5	0x3e6f9bff	0.23399352
6	0x3cdc8b98	0.026922032
7	0xbc471604	-0.012151245
8	0xbf05f136	-0.52321184
9	0x3db68c73	0.08913507
10	0x3e475dd4	0.19469386
11	0x3e256487	0.1615163
12	0xba9de388	-0.0012045959
13	0x3e8bfab4	0.2733971
14	0xbdcd09fd	-0.10011671
15	0xbdfac9ec	-0.12245545
16	0x3d3b9ccf	0.04580384
17	0x3ca9ea52	0.020741615
18	0xbb5842cb	-0.0032998796
19	0x3a1d9d44	0.0006012509
20	0xbe0d0857	-0.13772713
21	0x3d2990db	0.04139791
22	0xbe1cac6b	-0.15300147
23	0x3e43ef8b	0.19134347
24	0x3bba8bd0	0.0056929365
25	0x3c722131	0.014778421
26	0x3d24fe50	0.040281594
27	0xbcadafcb	-0.021201989
28	0x3d64fb3c	0.05590366
29	0x3d941560	0.072306395
30	0xbd84833e	-0.06470345
31	0x3d1434a6	0.036183022
32	0xbd13bed0	-0.036070645
33	0xbdd4b106	-0.10385327
34	0xbdb4c107	-0.088258795
35	0x3d9435d0	0.072368264
36	0xbe125d9a	-0.14293519
37	0xbd756007	-0.059906032
38	0xbd7a94b1	-0.06117696
39	0x3e568ff4	0.20953351
40	0x3ce34b37	0.027745826
41	0xbe0232aa	-0.1271464
42	0xbdcaed98	-0.09908599
43	0xbd7c4032	-0.06158466
44	0xbd354aaf	-0.044260677
45	0x3c8f273e	0.017474767
46	0x3ddad321	0.10684801
47	0x3da013d0	0.07816279
48	0xbe80b12d	-0.25135174
49	0xbdf08969	-0.11744959
50	0xbd624f32	-0.055251308
51	0x3e3344e2	0.17506745
52	0xbe678ad8	-0.22611558
53	0xbdb02008	-0.085998595
54	0xbaa4d312	-0.0012575111
55	0x3e189353	0.1489995
56	0x3dfe0426	0.12403135
57	0x3e2b2b0f	0.16715644
58	0xbe1ddb74	-0.15415746
59	0xbe045c6f	-0.12925886
60	0xbe4ab5e4	-0.19795948
61	0xbd400191	-0.046876494
62	0x3cead8f6	0.028667908
63	0x3b713142	0.0036803042
64	0xbd646bd7	-0.055766907
65	0xbd897598	-0.06711882
66	0xbb546d1d	-0.003241367
67	0x3e218803	0.1577454
68	0xbe4337a4	-0.19064194
69	0xbe2ff36a	-0.17182699
70	0xbe0f1ab4	-0.1397503
71	0x3e5aec0f	0.21379112
72	0x3d930df2	0.07180394
73	0xbdd9be01	-0.106319435
74	0xbdeebd36	-0.11657183
75	0x3db94aab	0.09047445
76	0xbdc01d5b	-0.09380599
77	0x3e0b54f2	0.13606623
78	0xbd522948	-0.0513089
79	0xbd83c92a	-0.064348534
80	0xbdda0229	-0.10644943
81	0x3cfc4528	0.030794695
82	0xbe16e719	-0.14736594
83	0xbebc8bde	-0.3682546
84	0x3d23df9c	0.040008172
85	0x3dc513aa	0.09622891
86	0xbe2ff82f	-0.17184518
87	0xbdcdca76	-0.10048382
88	0x3b6ee145	0.003645019
89	0xbd759a4f	-0.059961613
90	0x3e1bb79b	0.15206759
91	0x3ce00caf	0.027349798
92	0xbd7e5dde	-0.062101237
93	0x3bdb19d3	0.006686428
94	0x3e73ac8d	0.23796292
95	0xbdf9a0a0	-0.1218884
96	0xbe086cec	-0.133228
97	0xbde74a24	-0.11293438
98	0x3d8a21ea	0.0674475
99	0x3e49969a	0.19686356
100	0xbec7814d	-0.38965836
101	0x3d8030e2	0.06259324
102	0xbdb49c07	-0.08818822
103	0x3de804f2	0.11329068
104	0x3cc72ef7	0.024314387
105	0xbc95fc46	-0.01830877
106	0xbe4ba5e1	-0.19887497
107	0xbdcdefe7	-0.10055523
108	0xbe21615b	-0.15759794
109	0x3d2b815d	0.041871417
110	0x3e4c7b27	0.19968854
111	0xbe06908f	-0.13141082
112	0xbc554eae	-0.013019247
113	0xbe13bb82	-0.14426997
114	0x3cde71b7	0.027153833
115	0x3e401bdd	0.18760629
116	0xbe23b9b1	-0.15988804
117	0xbe0087d3	-0.12551813
118	0xbdd5086f	-0.10401999
119	0x3d1bb58d	0.038014937
120	0x3dc665f5	0.096874155
121	0x3cb424ec	0.021990262
122	0x3d2472a6	0.0401484
123	0xbe139698	-0.14412916
124	0x3e113c5b	0.1418318
125	0x3cbf6db8	0.023367748
126	0x3c0af427	0.008481062
127	0x3e111e02	0.14171603
128	0x3d5a47eb	0.053291243
129	0xbe09d812	-0.1346133
130	0x3d725171	0.0591597
131	0x3c90d187	0.017678035
132	0xbdc12d4e	-0.09432469
133	0xbe97151b	-0.2950829
134	0xbe0d3d3b	-0.13792889
135	0x3d08ae5c	0.033369407
136	0x3e4f0593	0.2021697
137	0x3e06815c	0.13135284
138	0x3d0dd641	0.034628157
139	0xbdb563cf	-0.088569276
140	0xbe85aee7	-0.26110002
141	0xbe0a3ad9	-0.13499011
142	0x3e0cf74b	0.1376621
143	0x3d886b3c	0.06661078
144	0x3d167e3c	0.03674148
145	0x3de32109	0.11090285
146	0xbd83d68c	-0.06437406
147	0x3e001432	0.12507704
148	0xbd70b82f	-0.0587694
149	0xbd82cc04	-0.06386569
150	0xbe5a8fbb	-0.21343891
151	0x3d2e388f	0.042534407
152	0xbd766708	-0.060156852
153	0xbdd12f1b	-0.10214063
154	0x3e49380e	0.1965029
155	0x3e315b40	0.17319965
156	0x3db7ca94	0.089741856
157	0x3e923d3a	0.28562337
158	0xbd0d8e8b	-0.034559768
159	0xbdc5fe46	-0.096676394
160	0xbda2d18c	-0.07950124
161	0x3e02face	0.12790987
162	0x3e42731e	0.18989226
163	0x3cd9ee11	0.026602777
164	0xbed025ce	-0.40653843
165	0x3d409683	0.04701854
166	0xbe3e5971	-0.18588807
167	0x3cf4f663	0.029902643
168	0x3bc9a991	0.006154247
169	0xbe2ff5bd	-0.17183585
170	0xbe28e759	-0.16494502
171	0x3e46272b	0.19350879
172	0x3c3e060a	0.0115981195
173	0x3e771b5a	0.24131528
174	0xbe02aaf7	-0.1276053
175	0xbe68d42a	-0.22737184
176	0x3d8bc865	0.068253316
177	0xbe2f37cd	-0.1711113
178	0xbdc830b8	-0.09774917
179	0x3d937783	0.072005294
180	0x3e20e96f	0.15714048
181	0xbe1afd50	-0.15135694
182	0x3d74427a	0.05963371
183	0x3e4f6e51	0.20256926
184	0x3dd213f1	0.1025771
185	0xbe0a3d97	-0.13500057
186	0x3c7e0eec	0.015506487
187	0xbdc48f8b	-0.09597691
188	0xbdf29e2b	-0.118465744
189	0xbd224d67	-0.039624598
190	0x3db8eb45	0.09029249
191	0x3e950e40	0.29112434
192	0xbc7f8a7e	-0.015596984
193	0xbdd0721c	-0.10178015
194	0x3d381cac	0.04494922
195	0x3e0b75f5	0.13619216
196	0xbda7122a	-0.081577614
197	0xbe3dba8d	-0.18528195
198	0xbd2fc88d	-0.04291587
199	0x3d3aab41	0.045573477
200	0xbd3289c6	-0.043588422
201	0xbdc6c110	-0.097047925
202	0xbde28058	-0.11059636
203	0xbdbf20d2	-0.09332432
204	0xbc4ba3b6	-0.012429168
205	0xbdf01a33	-0.11723747
206	0xbe11ed0e	-0.14250585
207	0x3cbdd4fa	0.023172844
208	0xbe0c2af3	-0.13688259
209	0x3e03c743	0.12868981
210	0x3d6fe353	0.058566403
211	0xbd4b3df3	-0.049619626
212	0x3d3697f5	0.04457851
213	0xbbca8d5f	-0.0061814035
214	0xbd7a7f9d	-0.061156858
215	0x3c895c27	0.016767574
216	0xbd261e22	-0.04055608
217	0xbd9294a5	-0.07157258
218	0xbd99a4ff	-0.07502174
219	0x3db1323c	0.086521596
220	0xb963a384	-0.00021709321
221	0x3daa0ce6	0.083032414
222	0xbcb610f2	-0.022224877
223	0xbddcd4c9	-0.10782773
224	0x3d716d8b	0.05894236
225	0xbe248493	-0.16066198
226	0x3e0e0fc8	0.13873208
227	0x3e384058	0.17993295
228	0xbe216184	-0.15759856
229	0xbe16e677	-0.14736353
230	0xbde95548	-0.11393219
231	0x3d86c1f3	0.06579962
232	0x3dd498b0	0.10380685
233	0xbbfeec85	-0.00777966
234	0x3d8c7fbe	0.068603024
235	0xbe453271	-0.19257523
236	0xbde05c64	-0.10955122
237	0xbd53d673	-0.051718187
238	0xbdeb73f2	-0.11496724
239	0x3de09624	0.10966137
240	0xbde5ff36	-0.11230318
241	0x3e560e5a	0.20903912
242	0xbe80e0cb	-0.25171503
243	0xbe903115	-0.28162447
244	0x3df140e4	0.11779955
245	0x3c2f5840	0.010702193
246	0xbdc8ee12	-0.09811033
247	0x3d4dca13	0.05024154
248	0xbd8046e0	-0.06263518
249	0xbe10e966	-0.14151534
250	0x3d652f3a	0.055953242
251	0x3dc73313	0.097265385
252	0x3d1d19a1	0.03835452
253	0x3d84b6d1	0.06480182
254	0x3d98fc21	0.07469965
255	0xbd5e3ad2	-0.054255314

uf_embedding.embedding.weight f4 [30, 16]
0	0x3cbb6e82	0.022879843
1	0xbddd9510	-0.10819447
2	0x3d815ac0	0.06316137
3	0xbc2e89f5	-0.010653009
4	0xbcd219c2	-0.025647048
5	0x3d5b4af5	0.05353828
6	0xbdbbf9b9	-0.0917849
7	0x3cc0b78b	0.02352502
8	0x3b505db8	0.0031794142
9	0xbd91955e	-0.07108568
10	0xbdf021d7	-0.117252044
11	0x3e8bc709	0.2730029
12	0xbd602f7c	-0.054732785
13	0x3e4035f7	0.18770586
14	0x3da616ae	0.081097946
15	0xbb7e0070	-0.0038757585
16	0xbca64a3b	-0.020299068
17	0xbddb8cab	-0.1072019
18	0x3d0bc91a	0.034127332
19	0x3d82b19d	0.06381533
20	0x3d6a89af	0.05726021
21	0x3bb3c995	0.005486677
22	0xbda6ddc7	-0.081477694
23	0x3ac0d8b3	0.0014713019
24	0x3c5b273e	0.013376055
25	0xbcf3813e	-0.029724713
26	0xbd55cd0e	-0.05219751
27	0x3e9efeda	0.3105381
28	0xbd1dc36a	-0.03851644
29	0x3dfa5a8b	0.12224301
30	0x3dc5fc50	0.096672654
31	0xbcbb22f5	-0.022843817
32	0x3d3fee2c	0.046857998
33	0x3d7267e5	0.059181113
34	0xbce70049	-0.028198378
35	0xbd560b00	-0.052256584
36	0x3d37ae8b	0.04484419
37	0xbd02a6c3	-0.031897318
38	0x3d0108f1	0.031502668
39	0xbd8815df	-0.066447966
40	0x3ddba182	0.107241645
41	0x3d4e9dd0	0.05044347
42	0x3d73d835	0.059532363
43	0x3e0391cb	0.12848584
44	0x3d1586b2	0.03650541
45	0x3e866ffb	0.2625731
46	0x3da6ca5b	0.08144065
47	0xbb94d84a	-0.004542385
48	0x3d1cd0d3	0.038285088
49	0x3e0cc05c	0.13745254
50	0xbda03107	-0.07821851
51	0xbd06a7e2	-0.03287495
52	0x3a7b74b4	0.000959228
53	0xbcd684f7	-0.02618645
54	0x3d36c484	0.044621006
55	0xbd52715e	-0.051377647
56	0x3bfc7831	0.0077047576
57	0xbd795fce	-0.060882382
58	0x3d26930f	0.04066759
59	0x3e328148	0.1743213
60	0x3d97de14	0.07415405
61	0x3e8b41a2	0.2719851
62	0xbdcc314f	-0.09970342
63	0x3a6ce07a	0.0009036135
64	0x3d299726	0.041403912
65	0x3e093722	0.13399938
66	0xbd18c834	-0.037300304
67	0xbd185928	-0.0371944
68	0x3ccc972b	0.024974426
69	0x3cd36bd3	0.02580825
70	0x3d177184	0.03697349
71	0xbd0ae922	-0.03391374
72	0x3b39e72c	0.002836655
73	0xbcdfd19c	-0.02732163
74	0xbb925e61	-0.0044668172
75	0x3e4fca05	0.20291908
76	0x3da1f3cc	0.07907829
77	0x3deeb3ff	0.11655425
78	0xbd9e1ea4	-0.07720688
79	0x3d6a68e2	0.05722893
80	0x3caf8ce9	0.021429496
81	0x3d31ce87	0.04340985
82	0xbc1d575e	-0.0096033495
83	0xbd4397e0	-0.04775226
84	0x3d872c0a	0.06600197
85	0x3d70326a	0.05864183
86	0x3c019e73	0.007911312
87	0xbccbc7a6	-0.024875473
88	0xbbb8bffa	-0.0056381198
89	0x3ce8a19f	0.02839738
90	0xbbf520ec	-0.0074807312
91	0x3e437342	0.19086936
92	0x3d9e9f00	0.077451706
93	0x3e014c1d	0.12626691
94	0x3bb63aed	0.0055612237
95	0x3d962e4c	0.07333049
96	0x3cf2a4b9	0.029619562
97	0x3c6dc6b5	0.0145127075
98	0x3b61f4fc	0.0034478297
99	0xbd66e085	-0.056366462
100	0x3d7b6755	0.061377842
101	0x3d028977	0.031869378
102	0x3c2aa0ac	0.010414284
103	0x3a8d8539	0.001079715
104	0x3c2a2b2f	0.010386272
105	0x3d5f0ef7	0.05445763
106	0xba8dff55	-0.0010833541
107	0x3e482918	0.19546926
108	0x3d958903	0.073015235
109	0x3e1e05c3	0.15431885
110	0x3dd90f6d	0.10598645
111	0x3d715d83	0.05892707
112	0x3c9c2386	0.019059908
113	0xbd1fdd25	-0.03902926
114	0x3caee74a	0.021350522
115	0xbd6f8d2b	-0.058484238
116	0x3d59f1e0	0.053209186
117	0x3d8cb81a	0.06871052
118	0xbba5da03	-0.0050613894
119	0x3c2e922d	0.010654968
120	0xbb1110b1	-0.0022135193
121	0x3d7f9f7e	0.062407963
122	0xbd0b6763	-0.034034144
123	0x3dffad15	0.12484185
124	0x3d520081	0.05127001
125	0x3e08310f	0.13299964
126	0x3dc0f112	0.094209805
127	0x3de8e572	0.11371888
128	0x3d13fcc2	0.03612972
129	0xbd576b4a	-0.052592553
130	0xbd17128f	-0.036882933
131	0xbd340607	-0.04395106
132	0x3d13e764	0.036109343
133	0x3dadfa3a	0.084949926
134	0x3a0cb201	0.0005367101
135	0x3d36fdaf	0.044675525
136	0x3cbfccef	0.02341315
137	0x3d1cc8eb	0.038277548
138	0xbdc2a531	-0.09504164
139	0x3e36ec41	0.17863561
140	0x3d58c851	0.05292541
141	0x3d21ed71	0.039533082
142	0x3d9ade3b	0.07561918
143	0x3d9e6b82	0.07735349
144	0xbcf59b3a	-0.029981244
145	0x3e069628	0.13143218
146	0x3cdb3d9c	0.026762776
147	0x3c74ea0e	0.014948381
148	0xbc96c009	-0.018402116
149	0x3ba2e2f8	0.0049709044
150	0x3d62b5b9	0.055349085
151	0x3c3df7ac	0.011594694
152	0xbbad669b	-0.0052917725
153	0x3c9525e3	0.018206542
154	0x3d66760a	0.056264915
155	0x3cb30ca0	0.021856606
156	0xbbb2f957	-0.0054618525
157	0x3b2a52d4	0.002598931
158	0x3d39c4d7	0.045353737
159	0xbcc66523	-0.024218148
160	0x3beb9d36	0.007190372
161	0x3db672df	0.08908629
162	0x3cb59bed	0.022169078
163	0xb9b87b11	-0.00035186906
164	0xbd044b59	-0.03229842
165	0x3bbebc0a	0.005820756
166	0x3d56a075	0.052399117
167	0x3d37d45b	0.044880252
168	0x3bce514d	0.006296313
169	0x3b874038	0.0041275285
170	0x3cb5aaa6	0.022176098
171	0x3ce9cb66	0.02853937
172	0xbcedee70	-0.02904436
173	0xbc1b9a2f	-0.009497209
174	0x3d0b39cf	0.033990677
175	0xbd12ee76	-0.035871945
176	0xbc2e3bed	-0.010634405
177	0x3dd573c7	0.104224734
178	0x3d15dbee	0.036586694
179	0x3c672314	0.014107484
180	0x3c27f733	0.010251808
181	0x3d23208d	0.039825965
182	0x3d0f75fe	0.035024635
183	0x3ce3b16f	0.027794568
184	0xbc859f14	-0.016311206
185	0xbd094751	-0.03351528
186	0x3d1df8ec	0.03856747
187	0x3d30c655	0.043157894
188	0xbcfec52b	-0.031099876
189	0xbb9678a4	-0.004592018
190	0x3c85cf00	0.016334057
191	0xbc415b52	-0.011801558
192	0x3c3bc0a1	0.0114595005
193	0x3da8aac8	0.08235699
194	0x3c2e93a5	0.010655318
195	0xbc9ac8db	-0.018894603
196	0xbca8346e	-0.020532813
197	0x3d0c7128	0.0342876
198	0x3cea906f	0.028633324
199	0xbb416ec5	-0.0029515487
200	0x3ba46f01	0.0050181155
201	0x3d44e63c	0.04807113
202	0x3b485abb	0.0030571658
203	0x3d8eca85	0.06972221
204	0xbba10b76	-0.0049146963
205	0x3d4e866a	0.050421156
206	0xbd0f9332	-0.035052486
207	0xbd31e60e	-0.043432288
208	0xbc83bc52	-0.016081009
209	0x3dc7057b	0.09717842
210	0x3c9391e6	0.018013906
211	0x3cbe0b4d	0.023198748
212	0xbd03aa73	-0.032144975
213	0x3c95765f	0.01824492
214	0x3d7d9571	0.061910097
215	0x3cc79378	0.02436231
216	0xbb38e9eb	-0.0028215598
217	0xbb4d6b90	-0.003134463
218	0xba3ff680	-0.0007322803
219	0x3d7f2e42	0.062299974
220	0xbcafcd1a	-0.021460105
221	0xba08574b	-0.0005200996
222	0x3d1d0ce4	0.03834237
223	0xbd250577	-0.040288415
224	0xbd89a13b	-0.067202054
225	0x3da579e1	0.08079887
226	0xbcb1ec83	-0.021719223
227	0xbb0b8de0	-0.002129428
228	0xbc1afdb5	-0.0094599025
229	0xbc98aa8f	-0.018636016
230	0x3d315413	0.04329307
231	0xbcaa246c	-0.02076932
232	0x3c30713b	0.010769184
233	0xb9a24deb	-0.000309571
234	0x3ae66492	0.001757758
235	0x3c3f9029	0.011692085
236	0xbd1e7ec6	-0.03869512
237	0x3c8712aa	0.016488392
238	0xbced2e60	-0.028952777
239	0xbd0f01f2	-0.034913965
240	0xbbcfcc50	-0.0063414946
241	0x3dcbf892	0.099595204
242	0xbbdffbba	-0.006835428
243	0xbb05eae8	-0.0020434204
244	0xbd5d12b7	-0.053972926
245	0xbc070612	-0.008241193
246	0x3d8ce5c4	0.06879762
247	0xbb31d186	-0.0027132942
248	0xba16e734	-0.0005756498
249	0x3d161bf4	0.036647752
250	0x3c9d69d3	0.0192155
251	0x3da3a296	0.07989995
252	0xbcd05e88	-0.025435701
253	0x3d889cef	0.06670558
254	0x3d0e5326	0.034747265
255	0xbd1c8ecd	-0.038222123

if_embedding.embedding.weight f4 [18, 16]
0	0x3da929fe	0.082599625
1	0xbc4e98f6	-0.012609711
2	0xbe04b940	-0.12961292
3	0xbd3bb9ec	-0.045831606
4	0x3d141a9d	0.036158193
5	0x3c3cdee3	0.01152775
6	0xbd6c9f87	-0.057769325
7	0x3d884a75	0.066548266
8	0x3e2cd558	0.16878259
9	0x3dbad031	0.091217406
10	0x3dcd615a	0.10028334
11	0x3b22152d	0.002473186
12	0xbe33ccae	-0.17558548
13	0xbe07b515	-0.13252671
14	0xbb30e557	-0.0026992166
15	0xbcbbf91c	-0.022945933
16	0x3d52f512	0.05150325
17	0xbb6e28ff	-0.0036340354
18	0xbd068512	-0.03284175
19	0x3e438ebf	0.19097422
20	0x3d0c64ea	0.034275927
21	0x3d69bee1	0.057066802
22	0xbd07b166	-0.033128165
23	0x3ce259b5	0.027630666
24	0x3e3abe52	0.18236664
25	0x3db24ee8	0.087064564
26	0xbc286f8c	-0.010280501
27	0x3d10d796	0.03536185
28	0x3e0f8dcb	0.14018933
29	0xbde842a0	-0.11340833
30	0xbdb0c4f2	-0.08631314
31	0xbd3c4e9b	-0.0459734
32	0x3d52560a	0.051351584
33	0x3dc75bcf	0.09734308
34	0xbd1c2bd4	-0.038127735
35	0x3e96ef62	0.2947951
36	0xbcd962c9	-0.026536362
37	0x3db9c1e4	0.09070185
38	0x3cd826af	0.026385633
39	0x3d5fd7ea	0.05464927
40	0xbd462535	-0.048375327
41	0x3dbc2b6c	0.091879696
42	0x3d91b772	0.071150675
43	0x3d1969e9	0.03745452
44	0x3d079824	0.033104077
45	0xbdcd11f8	-0.10013193
46	0xbe4adb4e	-0.1981022
47	0x3e888eaa	0.26671344
48	0x3ca08b95	0.019597808
49	0x3cc2b0f1	0.023766013
50	0x3d8518ef	0.06498896
51	0x3e836795	0.25664964
52	0xbdcc6daf	-0.09981858
53	0x3d1b8083	0.037964355
54	0xbc9b7844	-0.018978246
55	0x3e04ea3f	0.12979983
56	0xbc121af9	-0.008917564
57	0x3d0a9dce	0.0338419
58	0xbd4f956f	-0.05067962
59	0x3ba3d349	0.0049995524
60	0xbd2b8e8e	-0.041883998
61	0xbd0b1d18	-0.033963293
62	0xbe27c28b	-0.16382806
63	0x3dc10e2b	0.094265305
64	0xbd68abd2	-0.056804486
65	0x3bc7d556	0.0060984297
66	0x3c95c859	0.01828401
67	0x3d90c9d0	0.07069743
68	0xbd554cf7	-0.052075353
69	0x3cacb628	0.021082953
70	0x3dd8aaee	0.10579477
71	0x3d47594a	0.048669137
72	0x3df2d16e	0.11856352
73	0x3d3c30e7	0.045945074
74	0x3d362e9b	0.04447804
75	0xbd0b6dd6	-0.034040295
76	0xbe6a719e	-0.22894904
77	0xbe01b1b8	-0.1266545
78	0x3d0112bf	0.03151202
79	0x3b358eb7	0.0027703473
80	0xbd6a5b70	-0.057216108
81	0xbc638009	-0.013885506
82	0xbd56514b	-0.05232362
83	0xbd698c0e	-0.057018332
84	0x3e36f8c9	0.17868342
85	0xba4288fd	-0.00074209255
86	0x3c52d955	0.012869199
87	0xbe1281ed	-0.14307375
88	0x3e5e8ead	0.21734114
89	0xbe37e98b	-0.17960183
90	0xbb9c35fe	-0.0047671786
91	0xbc8bfcee	-0.01708838
92	0xbe042e1a	-0.12908211
93	0xbdd49681	-0.10380269
94	0x3d21f7da	0.03954301
95	0xbd07deae	-0.03317135
96	0xbd545f2d	-0.05184858
97	0xbcbf24b1	-0.023332926
98	0xbe1f0a16	-0.15531191
99	0x3e02e394	0.12782127
100	0x3dd1d5df	0.10245871
101	0xbd7a3147	-0.06108215
102	0x3e024f33	0.12725525
103	0xbe418034	-0.18896562
104	0x3ec3441a	0.38137895
105	0x3dd775ff	0.10520553
106	0x3e420cd2	0.18950203
107	0xbd86e679	-0.06586928
108	0x3e439dff	0.1910324
109	0xbe883db8	-0.26609588
110	0xbe848d04	-0.25888836
111	0x3c432329	0.011910238
112	0xbd232579	-0.03983066
113	0x3b818d34	0.0039536003
114	0xbc86b059	-0.016441511
115	0x3d12c0c2	0.03582836
116	0x3d299550	0.04140216
117	0x3cd237a1	0.025661292
118	0xbb1a8aac	-0.002358119
119	0xbe23b5c2	-0.15987304
120	0x3ddaff6a	0.106932476
121	0x3d5d70c6	0.054062627
122	0xbe3ecfda	-0.18633977
123	0x3c8dd573	0.017313695
124	0xbdc8b5b5	-0.09800283
125	0xbe12ea0a	-0.14347091
126	0xbdd91a50	-0.10600722
127	0xbca605c9	-0.02026643
128	0x3e893567	0.26798555
129	0x3e38a782	0.18032649
130	0xbd26a022	-0.04068006
131	0xbd62b53d	-0.055348624
132	0x3d87a550	0.06623328
133	0x3ca90222	0.0206309
134	0x3ce068ea	0.027393777
135	0xbc0a410f	-0.008438363
136	0x3e8aab63	0.27083883
137	0x3e1717b8	0.14755142
138	0x3e32b069	0.17450108
139	0xbd034c9e	-0.03205549
140	0x390e78d4	0.00013587187
141	0xbe1a17b5	-0.15048106
142	0xbe1b6219	-0.1517414
143	0xbd9e1a5e	-0.07719873
144	0x3de12318	0.10993022
145	0xbdaef71a	-0.08543225
146	0x3cefb4b1	0.029260965
147	0xbdf487a4	-0.11939934
148	0x3cc7b214	0.024376906
149	0x3da948a6	0.0826581
150	0x3c5c39a3	0.013441476
151	0xbe4372d1	-0.19086768
152	0x3dfe2c04	0.12410739
153	0x3ba60876	0.0050669266
154	0x3db839ac	0.08995375
155	0x3d6667bd	0.056251276
156	0x3dc52b2d	0.09627376
157	0xbdff2fcf	-0.12460291
158	0xbdd140b4	-0.10217419
159	0xbd5baab7	-0.053629603
160	0x3d9ca33a	0.076483205
161	0x3cbd3925	0.023098538
162	0x3dadbc2f	0.08483159
163	0xbdbaea5f	-0.09126734
164	0x3e94a6de	0.2903356
165	0xbcc3cf6c	-0.023902617
166	0x3c2df272	0.0106168855
167	0x3e15bfc8	0.1462394
168	0x3e0ab013	0.1354373
169	0xbe1ead7b	-0.15495865
170	0xbe84f3c9	-0.25967243
171	0x3bb0528e	0.005380935
172	0xbdf16645	-0.117870845
173	0xbe243a05	-0.16037758
174	0x3e060429	0.13087524
175	0x3e7cbcc5	0.24681385
176	0x3df61b58	0.12016934
177	0xbe00ba9b	-0.12571184
178	0xb9e1de82	-0.00043081125
179	0x3ea819bb	0.3283213
180	0xbd97a50d	-0.07404528
181	0x3d25c9ff	0.04047584
182	0x3e021d94	0.12706596
183	0xbe195f8a	-0.14977852
184	0xbc909bb0	-0.017652363
185	0xbd617c62	-0.05505026
186	0xbe3b286c	-0.18277138
187	0xbd6a8d70	-0.05726379
188	0x3d074239	0.03302214
189	0xbe04496e	-0.12918636
190	0xbd9e2c45	-0.077232875
191	0x3d0feb14	0.035136297
192	0x3be2fc85	0.0069270753
193	0xbd5c6c98	-0.0538145
194	0xbc2aee81	-0.01043284
195	0x3d957ced	0.07299218
196	0x3db04a85	0.086079635
197	0x3d6e0aee	0.058115892
198	0xbc144d50	-0.009051636
199	0xbc36ebd2	-0.011164622
200	0x3e864e50	0.26231623
201	0xbe84405c	-0.25830352
202	0xbd12ff68	-0.035888106
203	0x3bc64e6a	0.006051828
204	0x3e1cba6c	0.1530549
205	0xbe02cee2	-0.12774232
206	0x3e6b4259	0.22974528
207	0xbd4c9b6d	-0.049952913
208	0xbdd9f17f	-0.10641765
209	0xbe1f3563	-0.15547709
210	0xbc33e46e	-0.010979755
211	0x3e10b940	0.14133167
212	0xbc481f29	-0.01221446
213	0xbd9fee90	-0.07809174
214	0x3c3c1113	0.01147868
215	0xbcc6b750	-0.024257332
216	0x3e3afa16	0.18259463
217	0xbe28f200	-0.16498566
218	0x3ccae0fa	0.02476548
219	0xbdfdc361	-0.12390781
220	0x3e1c326d	0.15253611
221	0xbe5f537b	-0.21809189
222	0x3e2a9ffc	0.16662592
223	0xbd2d6b9d	-0.042338956
224	0x3d8ddf5b	0.06927367
225	0xbcd208b2	-0.025638912
226	0x3e072cea	0.13200727
227	0xbbaa27c2	-0.005192728
228	0x3e6ab0ca	0.22919002
229	0x3d63d7df	0.055625793
230	0xbcc07f09	-0.023498075
231	0x3d840ab9	0.06447358
232	0x3dd40831	0.10353125
233	0xbe03e295	-0.12879403
234	0x3df638dd	0.120225646
235	0x3cf12c5f	0.029440103
236	0x3e0d39f2	0.13791636
237	0xbdceeafb	-0.10103413
238	0xbe0fee2a	-0.14055696
239	0x3dcc9fad	0.09991393
240	0x3d18f143	0.03733946
241	0x3da7a48e	0.08185683
242	0x3bd32791	0.0064439257
243	0xba0a4c89	-0.0005275687
244	0x3d410185	0.04712059
245	0xbc624f5b	-0.013812865
246	0xbc8207da	-0.015872885
247	0xbd6cf4e5	-0.057850737
248	0x3e49205c	0.1964125
249	0xbec1f361	-0.37880996
250	0xbd2e8582	-0.04260779
251	0x3d47573e	0.048667185
252	0x3d91ffed	0.07128892
253	0xbe353624	-0.17696434
254	0x3e9e511e	0.30921263
255	0xbca27f08	-0.019835964

mlp.mlp.0.weight f4 [16, 16]
0	0x3e3b4dde	0.18291423
1	0xbe1eb2c3	-0.1549788
2	0xbe1d328e	-0.15351316
3	0x3e001cea	0.1251103
4	0xbe208a5a	-0.15677777
5	0xbe31adb2	-0.17351416
6	0x3e30be68	0.17260134
7	0x3e71785a	0.23581067
8	0x3ea578e2	0.3231879
9	0x3e039758	0.12850702
10	0xbe1ba0c3	-0.15198044
11	0xbe098ca4	-0.13432556
12	0x3da30574	0.079600245
13	0xbe2df22d	-0.16986914
14	0x3e03a245	0.1285487
15	0x3e4177a9	0.18893303
16	0x3b8193c0	0.0039543808
17	0x3db790d6	0.08963172
18	0x3da2742d	0.07932315
19	0xbdae7728	-0.08518821
20	0x3d9b9f3e	0.075987324
21	0x3d8e79df	0.06956839
22	0xbdb4b34a	-0.08823259
23	0xbd70d6d4	-0.058798626
24	0xbe554dc0	-0.2083044
25	0xbd351c64	-0.04421653
26	0x3d7f8621	0.062383775
27	0xbf281fd8	-0.6567359
28	0xbe4cb695	-0.19991525
29	0x3de69d7a	0.11260505
30	0xbd8bdb2d	-0.06828914
31	0xbd7d106f	-0.06178325
32	0xbcfa2ae2	-0.030538026
33	0xbdbe094d	-0.09279118
34	0xbbf3c5f4	-0.0074393693
35	0xbd2eee3c	-0.042707667
36	0xbca56c74	-0.020193316
37	0x3c501d7c	0.012702342
38	0x3d00b926	0.03142657
39	0x3eb00fb7	0.3438699
40	0x3ebd153e	0.3693027
41	0x3d1f627a	0.038912274
42	0xbd7c22b9	-0.06155655
43	0xbe48a860	-0.1959548
44	0xbe94b69e	-0.29045576
45	0xbe1076af	-0.14107774
46	0xbd467a4f	-0.048456486
47	0x3c562a5e	0.013071625
48	0xbdceffb5	-0.10107366
49	0xbe2417a6	-0.16024646
50	0xbe8613ff	-0.2618713
51	0x3d3fb66f	0.04680484
52	0xbda0cd0c	-0.078516096
53	0xbf011ef2	-0.50437844
54	0x3b8010e6	0.0039082645
55	0x3cb861ff	0.022507666
56	0x3e3ea8c4	0.18619066
57	0xbdda4e9c	-0.10659525
58	0xbe1c52f8	-0.15266025
59	0xbe807718	-0.2509086
60	0x3daf1811	0.08549512
61	0xbe15d979	-0.1463374
62	0xbee35b57	-0.44405624
63	0x3c67df1a	0.014152313
64	0x3e4e20ba	0.20129672
65	0xbe37a6fe	-0.17934796
66	0xbe2eabe3	-0.17057757
67	0x3e87fbb2	0.26559216
68	0xbe303aed	-0.17209978
69	0xbe31a345	-0.17347439
70	0x3e38a970	0.18033385
71	0x3e233e87	0.15941821
72	0x3ddc961f	0.10770821
73	0x3e01c3de	0.12672374
74	0xbe28a217	-0.16468082
75	0xbe3e5e62	-0.18590692
76	0x3dfcdf21	0.12347246
77	0xbe2aa794	-0.16665488
78	0xbc605d66	-0.013694143
79	0x3e1d5e8a	0.15368095
80	0xbe5874e8	-0.21138346
81	0x3e212508	0.15736783
82	0x3e212c78	0.1573962
83	0xbe348690	-0.17629457
84	0x3e2c10f9	0.1680335
85	0x3e0f3fb1	0.1398914
86	0xbe4a34a1	-0.19746639
87	0xbe559449	-0.20857348
88	0xbdfc8c37	-0.12331431
89	0xbe1fde63	-0.15612178
90	0x3e32852a	0.1743361
91	0x3e21f890	0.15817475
92	0xbe275e3e	-0.16344544
93	0x3df21070	0.118195415
94	0xbdfbdea7	-0.12298327
95	0xbe416e60	-0.18889761
96	0xbe6da7d4	-0.23208553
97	0x3de7069e	0.11280559
98	0x3e2d4ce3	0.16923861
99	0xbe57ec68	-0.21086276
100	0x3e12d2fb	0.14338295
101	0x3db86835	0.09004251
102	0xbe5d22e3	-0.2159534
103	0xbe462a03	-0.19351964
104	0xbdb76cc2	-0.08956291
105	0xbe4bdcd9	-0.19908465
106	0x3e128977	0.14310251
107	0x3e159c9e	0.14610526
108	0xbe67d15f	-0.22638462
109	0x3dfafa12	0.122547284
110	0xbe1248a4	-0.14285523
111	0xbe81bdea	-0.25340205
112	0xbe51bada	-0.20481434
113	0x3e1661c8	0.14685738
114	0x3e0cc3ac	0.13746518
115	0xbe34ac53	-0.17643861
116	0x3e0a6220	0.13513994
117	0x3e078949	0.13235964
118	0xbe3817e0	-0.17977858
119	0xbe4f0686	-0.20217332
120	0xbe115f0e	-0.14196417
121	0xbe21cb3f	-0.15800188
122	0x3e1c69ad	0.15274687
123	0x3e0aa755	0.13540395
124	0xbe354b18	-0.17704427
125	0x3e0df1bc	0.13861746
126	0xbdd63a14	-0.10460296
127	0xbe41ddfd	-0.18932338
128	0x3e27b537	0.16377722
129	0xbe51d83a	-0.2049264
130	0xbe5265ba	-0.20546618
131	0x3e5684aa	0.20949045
132	0xbe3ba06e	-0.18322918
133	0xbe62e5df	-0.22158001
134	0x3e3268e3	0.17422824
135	0x3e72986b	0.23690955
136	0x3e6fc0d3	0.234134
137	0x3e024926	0.12723216
138	0xbe312350	-0.17298627
139	0xbe52915b	-0.20563261
140	0x3de8a71d	0.11359999
141	0xbe34dbbf	-0.17661951
142	0xbda20b2a	-0.079122856
143	0x3e244689	0.16042532
144	0x3e5d8d24	0.21635872
145	0xbe322c8c	-0.17399806
146	0xbe19f5fc	-0.15035242
147	0x3e2a36e5	0.16622503
148	0xbe22548d	-0.15852566
149	0xbe1a1c06	-0.15049753
150	0x3e4f4263	0.20240168
151	0x3e22018b	0.15820901
152	0x3e221dee	0.1583173
153	0x3e2a83c0	0.16651821
154	0xbe2ba443	-0.1676188
155	0xbe00e0fb	-0.12585823
156	0x3e4a9979	0.19785108
157	0xbe155f5b	-0.14587156
158	0x3dbb6adc	0.09151241
159	0x3e3a8b64	0.18217236
160	0x3e70e8d2	0.23526314
161	0xbe311ecf	-0.17296909
162	0xbca23093	-0.019798553
163	0x3e7405b7	0.23830305
164	0xbe6b82aa	-0.22999063
165	0xbd8e0176	-0.069338724
166	0x3e0a246d	0.13490458
167	0xbdb90686	-0.09034447
168	0x3d2119d8	0.039331287
169	0x3dacde8d	0.08440886
170	0xbdbb8eb4	-0.09158078
171	0xbe6c5d60	-0.23082495
172	0x3dd92532	0.106027976
173	0xbe2a737a	-0.16645613
174	0xbec67161	-0.38758376
175	0xbd245e04	-0.040128723
176	0xbe67358b	-0.22579019
177	0x3e2efb04	0.17087942
178	0x3e0f82c2	0.14014724
179	0xbe505380	-0.20344353
180	0x3e25e0e5	0.16199072
181	0x3e138824	0.14407402
182	0xbe5b747e	-0.21431157
183	0xbe62b5b1	-0.22139622
184	0xbe1e10c9	-0.1543609
185	0xbe3bcf0f	-0.18340705
186	0x3e390f3d	0.18072219
187	0x3e2091be	0.15680596
188	0xbe46998d	-0.19394512
189	0x3e0ddaa4	0.13852936
190	0xbdf2c2c0	-0.11853552
191	0xbe596bac	-0.2123248
192	0x3e3d94b1	0.18513753
193	0xbd682cc3	-0.056683313
194	0xbe050c29	-0.1299292
195	0x3d83690c	0.064165205
196	0xbdcbe24b	-0.09955271
197	0xbe3391a5	-0.17536028
198	0x3e15c5e3	0.14626269
199	0x3dedbca6	0.116082475
200	0x3e034aee	0.12821552
201	0x3e19e2ba	0.15027896
202	0xbdd090cc	-0.10183868
203	0x3c0ae695	0.008477827
204	0x3e8b6bde	0.27230734
205	0xbda94341	-0.08264781
206	0x3e808260	0.25099468
207	0x3e343b70	0.17600799
208	0x3e530723	0.20608191
209	0xbe23710f	-0.15961097
210	0xbdd5d630	-0.10441244
211	0x3dc96c5e	0.098351225
212	0xbe05e251	-0.13074614
213	0xbdb664f6	-0.089059755
214	0x3e504f6d	0.20342799
215	0x3e16fe64	0.1474548
216	0x3e7b6d8e	0.2455351
217	0x3e19a270	0.15003371
218	0xbdfe2bfe	-0.124107346
219	0xbe1a6229	-0.15076508
220	0x3d4e8474	0.050419286
221	0xbe29ca4a	-0.16581073
222	0x3e0d6e33	0.13811569
223	0x3e01e3c8	0.12684548
224	0x3d8c4dab	0.068507515
225	0x3c22e1c3	0.009941521
226	0xbd781481	-0.06056643
227	0x3ebdd7e6	0.3707878
228	0x3ce720a5	0.028213808
229	0xbaae24c5	-0.0013286105
230	0xbd82fa7a	-0.06395431
231	0x3f24f3dc	0.644346
232	0x3d169ed8	0.03677258
233	0x3c5cf3e2	0.013485881
234	0xbc8a915a	-0.016915012
235	0x3d077a95	0.033075888
236	0x3df06487	0.11737924
237	0x3c83c7a0	0.0160864
238	0xbc4fdd91	-0.012687103
239	0x3e5f49f0	0.21805549
240	0xbe60d306	-0.21955499
241	0x3e30f266	0.17279968
242	0x3e1bffb6	0.15234265
243	0xbe561a48	-0.20908463
244	0x3e25217a	0.16126052
245	0x3df3a4fa	0.11896701
246	0xbe47faa8	-0.19529212
247	0xbe4deab0	-0.20109057
248	0xbdd03d49	-0.10167939
249	0xbe36250f	-0.17787574
250	0x3e2ebb47	0.17063628
251	0x3dd0c3b6	0.10193579
252	0xbe4e9ed9	-0.20177783
253	0x3dd4adf6	0.10384743
254	0xbe02d3da	-0.12776127
255	0xbe5fc809	-0.21853651

mlp.mlp.0.bias f4 [16]
0	0xbe419676	-0.18905053
1	0x3de153ec	0.11002335
2	0x3c8c6e35	0.017142395
3	0xbe7396d0	-0.23787999
4	0x3daca9b7	0.08430808
5	0x3df37bbe	0.11888836
6	0xbc562143	-0.013069454
7	0xbd9b4c8c	-0.075829595
8	0x3e4265e5	0.18984182
9	0x3e32f2c1	0.17475416
10	0x3c1cf9b0	0.0095810145
11	0x3e6bfba2	0.23045209
12	0xbe515a00	-0.20444489
13	0x3e08f572	0.1337488
14	0x3d8204e0	0.06348586
15	0xbdf59d70	-0.119929194

mlp.mlp.1.weight f4 [16]
0	0x3f60a7bb	0.87755936
1	0x3f2b5616	0.6692823
2	0x3f346a3c	0.704746
3	0x3f21fee9	0.6327959
4	0x3f3deba7	0.741877
5	0x3f5355b0	0.82552624
6	0x3f407146	0.7517284
7	0x3f4a1669	0.78940445
8	0x3f59d07c	0.85083747
9	0x3f6842ee	0.90727127
10	0x3f104ce5	0.5636733
11	0x3f4e7e8f	0.80661863
12	0x3f19ed7b	0.6012799
13	0x3f30fe72	0.6913825
14	0x3f21e3c3	0.6323816
15	0x3f2a6757	0.66563934

mlp.mlp.1.bias f4 [16]
0	0x3f19cbd5	0.6007665
1	0xbf1f0c33	-0.6212799
2	0x3d5ad4bd	0.05342554
3	0x3e2cac63	0.16862635
4	0x3f13c13c	0.5771673
5	0xbf43045a	-0.76178515
6	0xbf6f7405	-0.93536407
7	0xbf311a2f	-0.6918058
8	0x3f18d803	0.5970461
9	0x3f3717f9	0.71520954
10	0x3e6c1917	0.23056446
11	0xbf17a2b2	-0.5923263
12	0x3eb04a58	0.3443172
13	0x3f016325	0.5054191
14	0x3df3ad54	0.11898294
15	0xbf44a178	-0.7680888

mlp.mlp.1.running_mean f4 [16]
0	0x3ebc1df9	0.36741617
1	0xbd10af82	-0.035323627
2	0x3e702779	0.23452558
3	0x3d9ba876	0.07600491
4	0x3f1acf7e	0.6047286
5	0xbed66886	-0.4187662
6	0xbf113cfa	-0.5673367
7	0xbf1946f5	-0.59873897
8	0x3f4609f0	0.77358913
9	0x3f37a826	0.7174095
10	0x3ea2952e	0.3175444
11	0xbeb65320	-0.35610294
12	0x3e692852	0.22769287
13	0x3f18e6e5	0.5972732
14	0x3ed57693	0.41692027
15	0xbf297e08	-0.66207933

mlp.mlp.1.running_var f4 [16]
0	0x3fb6923f	1.4263381
1	0x3ed287e6	0.41119307
2	0x3f445eb1	0.7670699
3	0x3fb17f65	1.3867003
4	0x3f9eee87	1.2416543
5	0x3f9acd2b	1.2093862
6	0x3f9f19b4	1.2429719
7	0x3f9185e4	1.1368985
8	0x3fce9aee	1.6141031
9	0x3f9cba40	1.2244339
10	0x3f6f8983	0.935692
11	0x3fb65c3e	1.42469
12	0x3f4a8bd7	0.7911963
13	0x3f83eccd	1.0306641
14	0x3f89606f	1.0732554
15	0x3f949e57	1.1610821
