models/nfm.pt (torch, 688608 bytes, 22 tensors)

linear.fc.weight f4 [9969, 1]
-0.9139547 0.8506482 0.15971397 -0.99055237 -0.409784 0.51781493 1.1558311 0.6719206
-0.34185466 0.95027596 0.46963492 -0.4964266 0.8549753 0.89187133 0.28212306 -0.31856668
0.5441513 0.32931352 -0.28657073 1.2636111 -0.64027184 1.2632638 0.8617467 -0.209405
-1.472042 -0.12096745 -0.173265 0.45509785 -0.2890752 1.290993 0.52155197 -0.78398216
-1.4384094 0.5097775 0.6714331 -0.3565017 1.3720964 -1.3558416 -1.187761 1.1389114
-0.033955585 0.044923715 0.090166636 -0.12565748 0.008200065 0.5859099 -1.6916611 1.1471541
0.6494659 -0.7920211 -0.3292111 -1.9047774 -0.4427584 -1.5734521 -0.72472 1.3839861
0.7338282 0.3374884 -0.41211194 -0.21839042 1.0747567 -0.66635925 -0.53165543 0.093778566
0.6580333 0.68221885 -0.14654024 -0.81489384 0.119077556 -0.8742777 -2.065856 0.25006667
-0.20809418 0.14522742 0.53215975 0.23962246 0.22673611 -0.5081916 -0.5771797 -0.11727407
0.33704355 0.21900432 0.3145635 -0.1363258 -1.1789553 -0.33245933 -1.7707827 -0.1400134
0.64601785 1.5569211 -0.264429 0.13675241 -1.9107245 1.1003052 0.5330707 0.62707543
1.6868771 -0.06263846 0.08077987 1.063092 0.30348334 0.021156777 -0.3258016 -0.289791
0.05937619 2.04177 -0.18184803 0.28154364 -1.5240109 0.032991298 0.58508396 0.3606485
0.67313087 -0.50846803 0.48842776 -0.29261228 0.95257384 -1.0057542 0.0035198587 -0.00035562326
-0.3478054 0.27288336 0.20950292 0.22890548 1.0456928 1.1302595 -0.19932997 -0.30187073
-0.5466272 0.14598611 0.043636058 -0.13918395 -0.39339378 -0.6637946 -1.3573979 -2.2262132
-1.5847168 1.0112519 0.6768974 0.4684513 0.19153096 0.41905138 1.0878319 0.65175873
0.9290041 -0.7864427 -0.26009667 -0.4700967 0.7836269 0.9636511 0.69251597 1.1053426
-1.6267842 -0.629015 1.4394436 0.18642612 -0.21474737 0.16568236 0.1922711 -1.3027885
-0.41455594 0.5372209 0.23455413 0.20378974 1.2874323 -0.40547282 -0.48341557 1.1529909
-0.14812376 1.1261126 -0.1642055 1.0898024 -0.25701213 0.4933288 -0.303462 -0.6830561
1.3506837 -0.12007673 0.6882342 1.2826672 -0.79835576 -0.7768738 -0.0297166 0.38457128
0.34260315 1.6014165 -0.86287296 0.15530935 0.095201015 -0.07429361 -0.8526156 -0.9207824
-1.2104189 0.8588063 -1.1822376 -0.32408148 1.1593863 0.3211909 -0.31049922 0.5604183
-1.985356 -0.29699308 0.57654065 -0.39648953 -0.23458037 0.6768602 0.49309066 -0.31288165
-0.6244528 -0.18402351 0.38078862 0.17282176 -0.03418126 0.5230872 0.46682328 0.19868495
-0.65174615 0.24663514 1.5986962 0.857655 -0.6857605 0.571873 -0.22511385 0.6770914
-0.19839278 -2.211661 0.40491262 1.7054722 -0.79189306 0.48858172 -0.9542521 -1.0509315
0.6648595 -1.1916317 -0.16867965 0.83561265 1.0886495 -0.08404184 0.7627454 -0.67449516
0.3813146 -0.6704564 -0.08992337 -1.5398182 0.1643757 -0.47482994 -1.0824034 0.8619082
0.53787154 0.04146985 -0.55135214 -0.791331 0.5729785 -0.6381619 -0.69964266 -1.5268538
00000000: eff8 69bf 15c4 593f 0f8c 233e d794 7dbf
00000010: 35cf d1be 858f 043f 46f2 933f fd02 2c3f
00000020: 9307 afbe 4945 733f fd73 f03e a12b febe
00000030: a9df 5a3f ae51 643f 6f72 903e 2c1b a3be
00000040: 804d 0b3f c89b a83e 66b9 92be 02be a13f
00000050: dbe8 23bf a1b2 a13f 6f9b 5c3f 446e 56be
00000060: df6b bcbf c8bd f7bd 616c 31be 9602 e93e
00000070: aa01 94be 423f a53f 6e84 053f 0eb3 48bf
00000080: cd1d b8bf c780 023f 0ae3 2b3f 6487 b6be
00000090: dba0 af3f 388c adbf 8d08 98bf d9c7 913f
000000a0: 0315 0bbd ee01 383d 49a9 b83d 5bac 00be
000000b0: 9159 063c 31fe 153f 5a88 d8bf f2d5 923f
000000c0: 6643 263f e5c1 4abf 5b8e a8be bfcf f3bf
000000d0: 3bb1 e2be e166 c9bf 4087 39bf 7526 b13f
000000e0: 2adc 3b3f 48cb ac3e 5600 d3be bda1 5fbe
000000f0: a191 893f 8596 2abf 921a 08bf fa0e c03d
00000100: df74 283f e5a5 2e3f a50e 16be e29c 50bf
00000110: efde f33d aad0 5fbf fc36 04c0 bd08 803e
00000120: a416 55be 7fb6 143e 9f3b 083f 975f 753e
00000130: 832d 683e d818 02bf 0cc2 13bf 632d f0bd
00000140: f990 ac3e ab42 603e 780e a13e fe98 0bbe
00000150: 02e8 96bf 1c38 aabe 02a9 e2bf ac5f 0fbe
00000160: 6d61 253f 3149 c73f 3d63 87be d308 0c3e
00000170: 9f92 f4bf cdd6 8c3f 5277 083f 0488 203f
00000180: 97eb d73f 9848 80bd eb6f a53d 6613 883f
00000190: 2b62 9b3e fa50 ad3c 78cf a6be 7c5f 94be
000001a0: 7334 733d 5cac 0240 5f36 3abe 7d26 903e
000001b0: ca12 c3bf e221 073d 10c8 153f eca6 b83e
000001c0: 4e52 2c3f f62a 02bf 3413 fa3e 47d1 95be
000001d0: e1db 733f 8ebc 80bf 6ead 663b f272 bab9
000001e0: 8d13 b2be 5eb7 8b3e ef87 563e 3366 6a3e
000001f0: 43d9 853f 58ac 903f 281d 4cbe cd8e 9abe
00000200: c3ef 0bbf 627d 153e b9bb 323d 3d86 0ebe
00000210: e96a c9be 71ee 29bf 37bf adbf 477a 0ec0
00000220: 00d8 cabf b470 813f 2649 2d3f d9d8 ef3e
00000230: b120 443e e78d d63e 133e 8b3f a9d9 263f
00000240: 36d3 6d3f 4f54 49bf 642b 85be 84b0 f0be
00000250: c69b 483f d7b1 763f ba48 313f de7b 8d3f
00000260: 773a d0bf 2107 21bf b03f b83f 7de6 3e3e
00000270: bce6 5bbe a3a8 293e b7e2 443e c6c1 a6bf
00000280: ad40 d4be 4f87 093f f52e 703e 42ae 503e
00000290: 95ca a43f 229a cfbe 3f82 f7be 3595 933f
000002a0: c1ad 17be 7524 903f 7d25 28be a57e 8b3f
000002b0: 1897 83be 9895 fc3e 5f5f 9bbe c4dc 2ebf
000002c0: 34e3 ac3f caea f5bd 1e30 303f 702e a43f
000002d0: 0b61 4cbf 34e1 46bf 3a70 f3bc 87e6 c43e
000002e0: ae69 af3e 37fb cc3f 3ee5 5cbf 6a09 1f3e
000002f0: c0f8 c23d 4027 98bd 0445 5abf 65b8 6bbf
00000300: 02ef 9abf bbda 5b3f 9053 97bf 02ee a5be
00000310: c566 943f 2273 a43e c1f9 9ebe 9377 0f3f
00000320: 2520 febf 7a0f 98be 2b98 133f ad00 cbbe
00000330: d635 70be b646 2d3f 6176 fc3e 0632 a0be
00000340: 24dc 1fbf a970 3cbe baf6 c23e 30f8 303e
00000350: a601 0cbd 0be9 053f 7603 ef3e 1174 4b3e
00000360: d6d8 26bf ec8d 7c3e 14a2 cc3f 478f 5b3f
00000370: 008e 2fbf 4566 123f 3f84 66be dd55 2d3f
00000380: 7a27 4bbe db8b 0dc0 b550 cf3e ea4c da3f
00000390: 81b9 4abf 6227 fa3e de49 74bf ec84 86bf
000003a0: 3b34 2a3f 6387 98bf 5cba 2cbe b6ea 553f
000003b0: de58 8b3f 211e acbd 4843 433f b7ab 2cbf
000003c0: ab3b c33e 08a3 2bbf be29 b8bd c318 c5bf
000003d0: 1a52 283e e91c f3be 328c 8abf 04a6 5c3f
000003e0: f3b1 093f 4adc 293d 6a25 0dbf ab94 4abf
000003f0: b8ae 123f 945e 23bf c81b 33bf f26f c3bf

fm.1.weight f4 [16]
0.5321581 0.57019174 1.0684841 0.8331664 1.0837649 1.0372847 0.9310234 1.1229583
0.88097644 1.0751787 1.0692824 0.93256336 0.83407694 0.9408926 1.0934418 0.6378274
00000000: 833b 083f 16f8 113f 16c4 883f 654a 553f
00000010: cfb8 8a3f bfc5 843f 8d57 6e3f 19bd 8f3f
00000020: ac87 613f 759f 893f 3fde 883f 79bc 6e3f
00000030: 1186 553f 56de 703f e7f5 8b3f a848 233f

fm.1.bias f4 [16]
-0.073081955 -0.086294934 0.2825435 -0.15884757 -0.34328714 -0.2796263 0.15160954 0.3161961
-0.17811385 0.17639337 0.22509795 -0.19814174 0.16084549 -0.20190012 -0.32791868 -0.070128396
00000000: feab 95bd 66bb b0bd 8ba9 903e f0a8 22be
00000010: 55c3 afbe 2e2b 8fbe 883f 1b3e 75e4 a13e
00000020: 7a63 36be 77a0 343e 1480 663e abe5 4abe
00000030: aeb4 243e e8be 4ebe f5e4 a7be 7a9f 8fbd

fm.1.running_mean f4 [16]
-0.010643176 -0.0023330725 0.0019162153 -0.0047587757 -0.0119129075 -0.010283643 -0.0006556584 0.14463311
-0.0031214599 -0.003083467 0.000532881 -0.0062865666 0.0028028365 -0.004151468 -0.0053455834 -0.02088775
00000000: b760 2ebc 76e6 18bb 8429 fb3a 81ef 9bbb
00000010: 5b2e 43bc ba7c 28bc 7ee0 2bba b41a 143e
00000020: 6891 4cbb fe13 4abb 0ab1 0b3a 8bff cdbb
00000030: cbaf 373b 0a09 88bb 012a afbb c91c abbc

fm.1.running_var f4 [16]
0.0047065737 0.0014026057 0.0006274205 0.00077430275 0.0016744297 0.0010762339 0.00087681157 0.010863333
0.0007256361 0.00060612574 0.00043843797 0.0006255942 0.0005143518 0.0005583114 0.0030337952 0.0010848112
00000000: 9a39 9a3b a3d7 b73a 7a79 243a 94fa 4a3a
00000010: 8a78 db3a 6b10 8d3a d4d9 653a 1ffc 313c
00000020: 9d38 3e3a 69e4 1e3a 26de e539 ebfe 233a
00000030: 91d5 063a a55b 123a a3d2 463b 3930 8e3a

u_embedding.embedding.weight f4 [6038, 16]
0.021371482 -0.034304347 -0.11523509 -0.048512813 -0.011440544 -0.060513955 0.13407396 -0.03307245
-0.3140827 0.4795219 0.12558252 -0.2358174 -0.12935421 -0.08769275 0.0628873 0.20589972
-0.022836404 0.13085149 0.08581541 0.2799537 -0.117939144 -0.11507275 -0.016557192 -0.15727973
0.09065442 0.26991948 0.123070925 -0.12500109 -0.1289224 0.05472472 -0.23941699 0.06188248
-0.16381985 0.044210948 0.1244856 0.0391604 -0.13272145 -0.08007681 -0.0005711982 -0.09405914
0.07948381 0.10436383 0.18084194 0.007657815 0.03954164 0.1153087 -0.116491914 -0.027919516
-0.24858187 0.047706332 0.065086976 0.057781123 -0.041727226 -0.23101811 -0.18855496 -0.07942873
-0.07075964 0.2917632 -0.055968337 -0.18013577 0.0800399 -0.060044516 -0.023907522 -0.04574677
-0.17449264 0.22964348 -0.3414904 0.056846276 0.1927648 0.071831115 -0.024376234 -0.02858268
-0.0664395 0.2585846 0.16884731 -0.071850926 0.18669137 0.0831653 -0.043928616 -0.17576005
-0.20832045 0.012922173 0.014749437 -0.05059816 -0.14019503 -0.12066124 0.23413983 -0.007521159
0.14181317 0.075079285 0.03056629 -0.2629322 0.038079023 0.013127557 -0.09733204 0.023399524
-0.32223248 0.06558697 0.09145518 0.18855634 -0.0932522 -0.3287202 -0.27629042 -0.22372802
0.29111266 0.20472006 0.10843783 0.045882072 -0.07942521 0.077894785 -0.25247929 -0.004792316
-0.1421972 0.077412724 -0.1047077 0.22268033 0.02154333 0.07834806 0.10027927 -0.08376478
-0.0050385618 -0.07641987 0.11274565 -0.28269908 -0.071245156 0.16601638 -0.26096362 0.2817118
-0.038634196 0.0272728 -0.16468497 0.05829219 0.023046706 0.14685398 0.046693675 -0.12188049
-0.06405825 0.24658598 0.17940325 -0.25100178 0.116621524 0.086079404 -0.065253355 0.09742172
0.10290483 -0.026363494 0.13189515 -0.016770918 -0.18239085 -0.20260186 0.2497052 -0.05779713
-0.10724341 0.11493397 0.10853126 0.06519066 0.0541297 -0.08253574 -0.015089799 0.09052033
-0.09787309 -0.05346737 -0.081882805 0.119810574 -0.027498608 0.173522 -0.06314781 -0.12861805
-0.026035666 0.10811325 0.17268845 0.26463366 0.12479373 0.06501527 -0.14536868 -0.054859184
-0.002363573 -0.04628168 0.07551843 -0.009249201 -0.061846662 0.061890602 -0.03605861 0.009269231
-0.1120156 0.08873058 -0.08324454 0.0057674837 0.19626705 -0.14141232 0.006231005 0.13073134
-0.011485814 -0.14031225 0.13353696 0.1311688 -0.08061829 -0.4325752 -0.045289546 -0.07883417
0.031638455 0.02789204 0.043907527 -0.019842206 -0.018964099 0.11924684 -0.14920513 -0.18093087
-0.042592924 0.034982417 -0.09348015 0.13633312 0.096074715 -0.04798945 -0.009078314 -0.22584686
0.08402806 0.21719342 0.029438626 -0.03536829 0.07896629 0.010694458 -0.1430737 -0.12430106
0.0056213522 0.09034815 -0.025010724 0.16081214 0.0060067005 0.09711107 0.081460156 -0.12750243
0.23592007 0.0503155 0.2566788 -0.12565486 0.042576086 0.15463468 -0.08766301 -0.07289073
-2.883487e-05 0.011330179 -0.19331424 0.02594365 -0.18687318 0.02362136 0.22128513 -0.0013809467
0.067161135 0.07023267 0.20276046 0.18155447 0.08966236 -0.051041074 0.062630355 -0.050806362
00000000: 3f13 af3c b782 0cbd 6000 ecbd 5fb5 46bd
00000010: 1f71 3bbc 7bdd 77bd af4a 093e fa76 07bd
00000020: 73cf a0be e583 f53e b498 003e 1e7a 71be
00000030: 6e75 04be 4298 b3bd 0fcb 803d 60d7 523e
00000040: 6913 bbbc effd 053e fdbf af3d 1756 8f3e
00000050: 148a f1bd 43ab ebbd f3a2 87bc f00d 21be
00000060: 06a9 b93d e332 8a3e 9c0c fc3d 4900 00be
00000070: 3c04 04be 0727 603d ba29 75be 7c78 7d3d
00000080: 64c0 27be 8a16 353d 4ef2 fe3d a866 203d
00000090: 22e8 07be 50ff a3bd 76bc 15ba 14a2 c0bd
000000a0: 68c8 a23d b4bc d53d a12e 393e 68ee fa3b
000000b0: 6af6 213d f826 ec3d 5093 eebd 78b7 e4bc
000000c0: 3f8c 7ebe b767 433d 524c 853d e6ab 6c3d
000000d0: 2bea 2abd 0390 6cbe 8d14 41be 88ab a2bd
000000e0: 6eea 90bd fc61 953e 0e3f 65bd 8375 38be
000000f0: f6eb a33d 3df1 75bd b5d9 c3bc f760 3bbd
00000100: 33ae 32be a927 6b3e d4d7 aebe a4d7 683d
00000110: 2364 453e 311c 933d abb0 c7bc 3926 eabc
00000120: 6f11 88bd 3365 843e 4fe6 2c3e 9426 93bd
00000130: 062c 3f3e 9252 aa3d 7eee 33bd 71fa 33be
00000140: f551 55be 86b7 533c 9fa7 713c 0440 4fbd
00000150: 498f 0fbe 3d1d f7bd 5ac2 6f3e 0e74 f6bb
00000160: 7937 113e 2bc3 993d 2866 fa3c 0d9f 86be
00000170: c0f8 1b3d f714 573c 0556 c7bd 5cb0 bf3c
00000180: a8fb a4be 7652 863d da4c bb3d ea14 413e
00000190: 02fb bebd 044e a8be f075 8dbe f518 65be
000001a0: b80c 953e 23a2 513e a714 de3d d7ee 3b3d
000001b0: afa9 a2bd 4d87 9f3d f744 81be dc08 9dbb
000001c0: 259c 11be 908a 9e3d fe70 d6bd 5006 643e
000001d0: a37b b03c f374 a03d 385f cd3d de8c abbd
000001e0: 851a a5bb 0582 9cbd 31e7 e63d efbd 90be
000001f0: fbe8 91bd 3300 2a3e 069d 85be 873c 903e
00000200: e43e 1ebd 356b df3c 2da3 28be cbc3 6e3d
00000210: 72cc bc3c e460 163e de41 3f3d 7a9c f9bd
00000220: f930 83bd 0981 7c3e 7cb5 373e 4e83 80be
00000230: 44d7 ee3d 664a b03d 8da3 85bd 0a85 c73d
00000240: c4bf d23d 41f8 d7bc 860f 073e 2a63 89bc
00000250: abc4 3abe dd76 4fbe b8b2 7f3e afbc 6cbd
00000260: 6fa2 dbbd 8062 eb3d a345 de3d ae82 853d
00000270: 1bb7 5d3d 8008 a9bd 343b 77bc b962 b93d
00000280: b071 c8bd 9a00 5bbd 2cb2 a7bd 3f5f f53d
00000290: c344 e1bc c0af 313e a453 81bd 73b4 03be
000002a0: c048 d5bc 7b6a dd3d 3ed5 303e 107e 873e
000002b0: db93 ff3d ba26 853d 87db 14be 06b4 60bd
000002c0: 2de6 1abb dc91 3dbd 68a9 9a3d f689 17bc
000002d0: ed52 7dbd 0081 7d3d 31b2 13bd f9dd 173c
000002e0: 6f68 e5bd 61b8 b53d 1d7c aabd 29fd bc3b
000002f0: 3bfa 483e 64ce 10be 752d cc3b 70de 053e
00000300: ff2e 3cbc 04ae 0fbe eabd 083e 1d51 063e
00000310: 341b a5bd 7f7a ddbe 8881 39bd cf73 a1bd
00000320: 5397 013d d97d e43c 61d8 333d 1f8c a2bc
00000330: 995a 9bbc b037 f43d 3bc9 18be f145 39be
00000340: eb75 2ebd b949 0f3d 8572 bfbd e99a 0b3e
00000350: d2c2 c43d 9690 44bd 35bd 14bc 6644 67be
00000360: e716 ac3d f467 5e3e 4629 f13c 57de 10bd
00000370: 14b9 a13d cf37 2f3c e981 12be 8e91 febd
00000380: 5233 b83b 7308 b93d 4ae3 ccbc f0ab 243e
00000390: dbd3 c43b 2be2 c63d 95d4 a63d ff8f 02be
000003a0: 0895 713e a017 4e3d 676b 833e abab 00be
000003b0: 4364 2e3d 8e58 1e3e aa88 b3bd bc47 95bd
000003c0: 69e2 f1b7 37a2 393c 2bf4 45be c787 d43c
000003d0: af5b 3fbe 9581 c13c 9298 623e e200 b5ba
000003e0: c78b 893d 25d6 8f3d 70a0 4f3e 6ae9 393e
000003f0: e6a0 b73d 7210 51bd 5844 803d 551a 50bd

i_embedding.embedding.weight f4 [3883, 16]
0.1221047 -0.18962333 0.04994614 -0.05034342 -0.4782426 0.0027946662 0.0789659 0.10790943
-0.15305145 -0.31062508 -0.2055259 -0.112610735 0.009279006 0.18633409 0.09111927 0.001511853
-0.072574414 -0.08683704 -0.0605593 -0.16526647 -0.11814945 -0.17552489 -0.056655563 0.06696986
0.016421754 0.08405326 -0.15947042 -0.17941763 0.026990704 0.084543005 0.010366504 -0.120787315
-0.0026112548 0.033404697 -0.09180363 -0.07991092 -0.1441023 0.016110348 -0.16725248 0.077471174
0.17869066 0.074924536 -0.10422634 -0.018634683 -0.023031358 0.14294553 0.09264849 0.1725269
-0.06333914 0.06362149 0.21090898 0.105902925 0.027801504 -0.11097979 -0.33309954 -0.07627664
0.08273317 0.091531605 -0.051643584 -0.10263668 -0.05611891 0.08689201 -0.13698557 -0.00077125616
-0.018902665 0.08681096 0.010729315 0.028751256 -0.0002367463 -0.0885562 -0.28554162 -0.046516765
0.21989127 0.18559878 -0.08757204 -0.027988186 0.009964721 0.11315347 -0.06013032 0.06145439
0.01658815 -0.04245028 0.058444276 0.45627373 -0.0894879 0.013270567 0.40085372 0.1397131
-0.25199994 -0.053221684 -0.0275798 -0.13246483 -0.12867238 0.3041022 0.12657689 -0.15093026
-0.04063936 0.18356733 0.08235114 -0.01039643 -0.11698146 0.0024920765 -0.35531905 -0.025858277
0.06970362 0.07053889 -0.047739834 -0.14431396 0.18618003 0.18307185 0.0032755139 -0.08224144
-0.08197836 0.060257833 0.048708223 -0.12294505 0.010362332 0.0052259164 -0.17870219 -0.011039571
0.10472809 0.105661646 -0.03801422 -0.23484045 -0.14931133 0.05884915 0.05686827 0.019090952
-0.14938506 0.0839655 -0.12848553 -0.112930164 0.09319281 0.14039636 0.11391266 -0.20933197
0.19768131 0.29266888 -0.039929032 -0.0154669015 -0.09493106 -0.055823185 -0.2799662 0.28372535
0.022550806 -0.24034953 0.022145018 0.023862036 -0.12794848 -0.16670018 0.013802883 0.067325875
0.13651903 0.074531116 0.02717891 -0.10832899 -0.1489532 0.14719543 0.058195073 -0.0881626
0.10679161 0.12703437 0.07298293 0.05633189 -0.15456137 0.06086817 -0.18828866 0.1029108
0.15831591 0.03812531 -0.027438808 -0.05838721 0.20509343 0.28731817 0.09321629 0.08413936
-0.109986104 0.07117625 -0.24938148 -0.102194086 0.042034253 -0.053599287 -0.12088095 -0.027393019
0.2744368 0.08089294 -0.050188575 0.04898244 -0.22628859 -0.06336923 -0.012329527 0.2023339
-0.09466598 -0.016402693 0.07349391 0.08789231 0.13318485 -0.0961909 -0.16172959 -0.17558783
0.21459794 0.07970047 0.011571231 0.06800736 0.0314289 0.045224812 -0.19635555 -0.06606987
-0.024919484 -0.02867877 0.023920221 0.076310866 0.025124459 0.060472976 0.031050932 -0.011136847
-0.12093436 0.16259652 0.035619944 0.03679714 -0.034199603 0.06185611 0.034339074 0.07841737
-0.09300577 0.12227882 0.013886625 -0.08923351 -0.03414507 0.040779866 -0.15719156 -0.064241685
0.20043194 0.17886457 -0.026023543 -0.041353256 -0.083974436 -0.06922466 -0.09008597 0.13949017
-0.1262783 0.019313676 -0.033443335 0.13932894 -0.0847682 0.046396907 0.21898809 -0.013189962
-0.103091665 0.051519774 -0.15676872 0.115790345 -0.0029507645 0.16709134 -0.06896287 -0.11109198
00000000: 0712 fa3d 9e2c 42be 5394 4c3d e734 4ebd
00000010: 37dc f4be b826 373b e0b8 a13d 9fff dc3d
00000020: 85b9 1cbe 400a 9fbe 6275 52be 75a0 e6bd
00000030: f906 183c 5dce 3e3e bd9c ba3d 5e29 c63a
00000040: e5a1 94bd 9ed7 b1bd 070d 78bd 9d3b 29be
00000050: 57f8 f1bd ccbc 33be aa0f 68bd 7e27 893d
00000060: ea86 863c 1e24 ac3d 374c 23be 41b9 37be
00000070: 9c1b dd3c e224 ad3d 45d8 293c 575f f7bd
00000080: 9621 2bbb 5dd3 083d 8b03 bcbd 56a8 a3bd
00000090: 8e8f 13be d9f9 833c 3c44 2bbe 35a9 9e3d
000000a0: affa 363e 0972 993d 9f74 d5bd c3a7 98bc
000000b0: 42ac bcbc 5060 123e 7ebe bd3d e4aa 303e
000000c0: f3b7 81bd fc4b 823d 86f8 573e a2e3 d83d
000000d0: fbbf e33c 5f49 e3bd 068c aabe ed36 9cbd
000000e0: 0270 a93d ec74 bb3d 3988 53bd 2e33 d2bd
000000f0: f1dc 65bd 70f4 b13d f245 0cbe 202e 4aba
00000100: c3d9 9abc f2c9 b13d 02ca 2f3c c187 eb3c
00000110: 1a3f 78b9 f45c b5bd 8332 92be 5d88 3ebd
00000120: 2d2b 613e 9b0d 3e3e f858 b3bd 7b47 e5bc
00000130: 1243 233c 02bd e73d 364b 76bd 99b7 7b3d
00000140: dfe3 873c 58e0 2dbd 4463 6f3d b69c e93e
00000150: 6f45 b7bd cb6c 593c b33c cd3e f310 0f3e
00000160: 2306 81be fbfe 59bd 08ef e1bc dca4 07be
00000170: b1c2 03be 49b3 9b3e 5f9d 013e 768d 1abe
00000180: 7575 26bd 13f9 3b3e b7a7 a83d ca55 2abc
00000190: fa93 efbd 1b52 233b 61ec b5be bdd4 d3bc
000001a0: c6c0 8e3d b276 903d d88a 43bd 0ac7 13be
000001b0: faa5 3e3e 3077 3b3e 01aa 563b 336e a8bd
000001c0: 45e4 a7bd ebd0 763d 4682 473d 9dca fbbd
000001d0: c5c6 293c 2a3e ab3b b5fd 36be 51df 34bc
000001e0: ae7b d63d 2265 d83d ccb4 1bbd 047a 70be
000001f0: 12e5 18be ce0b 713d b4ee 683d a164 9c3c
00000200: 66f8 18be 1bf6 ab3d b691 03be ee47 e7bd
00000210: dfdb be3d 10c4 0f3e 0a4b e93d 1f5b 56be
00000220: f86c 4a3e b2d8 953e a08c 23bd e368 7dbc
00000230: 376b c2bd daa6 64bd bb57 8fbe 7344 913e
00000240: 78bc b83c 301e 76be 7869 b53c 517a c33c
00000250: ed04 03be 74b3 2abe 7d25 623c 26e2 893d
00000260: a5cb 0b3e c5a3 983d 4ea6 de3c 97db ddbd
00000270: 3087 18be 66ba 163e f55d 6e3d 988e b4bd
00000280: 8fb5 da3d 4c15 023e 1378 953d 45bc 663d
00000290: 5645 1ebe e750 793d bece 40be e6c2 d23d
000002a0: 911d 223e 4929 1c3d 5ac7 e0bc 6d27 6fbd
000002b0: 0304 523e 5e1b 933e 2fe8 be3d 4251 ac3d
000002c0: 6540 e1bd dbc4 913d dc5d 7fbe 224b d1bd
000002d0: 1c2c 2c3d ed8a 5bbd 6e90 f7bd 5367 e0bc
000002e0: fb82 8c3e 33ab a53d 8992 4dbd d0a1 483d
000002f0: 32b8 67be bac7 81bd c901 4abc 9e30 4f3e
00000300: 3de0 c1bd f15e 86bc fa83 963d e200 b43d
00000310: 9c61 083e bcff c4bd 719c 25be 4ccd 33be
00000320: 90bf 5b3e 003a a33d 4395 3d3c 7147 8b3d
00000330: 97bb 003d a73d 393d 6e11 49be a44f 87bd
00000340: f223 ccbc bdef eabc 57f4 c33c df48 9c3d
00000350: cfd1 cd3c 83b2 773d 865e fe3c 5277 36bc
00000360: 6fac f7bd b47f 263e 38e6 113d 99b8 163d
00000370: e214 0cbd d55c 7d3d 21a7 0c3d 4999 a03d
00000380: cf79 bebd 516d fa3d ba84 633c 0fc0 b6bd
00000390: b3db 0bbd ca08 273d d3f6 20be 2591 83bd
000003a0: 083e 4d3e 4628 373e 532f d5bc 0862 29bd
000003b0: cafa abbd a9c5 8dbd fe7e b8bd 83d6 0e3e
000003c0: 194f 01be b737 9e3c e1fb 08bd 3fac 0e3e
000003d0: f39a adbd af0a 3e3d 6a3e 603e b61a 58bc
000003e0: b921 d3bd 6606 533d fb87 20be 7d23 ed3d
000003f0: 9d61 41bb fe19 2b3e 683c 8dbd 3184 e3bd

uf_embedding.embedding.weight f4 [30, 16]
0.17971809 0.13209353 -0.023034446 -0.035527453 -0.008889329 0.11039017 0.041721556 -0.14422566
-0.00087266916 -0.081156805 -0.043575227 -0.022913601 -0.0031627521 -0.031182816 0.18411444 0.15866096
0.052449457 -0.07501997 0.03086851 0.007384735 -0.006037686 0.09055298 -0.066697225 -0.15253532
-0.007824205 -0.07843393 -0.037047345 0.030979058 -0.000996572 -0.06175694 0.19408463 0.12457347
-0.15572618 0.0015299534 -0.037108906 -0.090689115 -0.07671962 -0.09060789 0.045696635 -0.18395467
0.018789452 -0.008228673 0.055595856 -0.08276016 0.08766888 0.034730233 0.108131096 -0.066192575
0.13583039 -0.07464663 -0.047302976 -0.038031094 -0.03781178 -0.06279758 -0.017649982 -0.22669116
-0.051107652 -0.0083900355 0.08424658 -0.06701524 0.08455958 0.074441016 0.044929814 -0.06279647
0.017640866 -0.003931937 -0.06406006 -0.017718477 -0.024385348 -0.05597245 -0.04425467 -0.22957695
-0.06363692 0.005032149 0.031234916 -0.062458925 -0.004247263 0.04005502 0.034116738 -0.15755346
-0.11358066 -0.09224619 -0.05497161 -0.054474544 -0.0018711061 -0.03482588 -0.019477576 -0.23417068
-0.0018838593 0.045032073 0.01911835 -0.07161732 -0.033241775 0.008518612 0.0248682 -0.10705721
-0.121483356 -0.01659299 -0.039004665 0.0145408735 -0.015752342 -0.010411809 0.0047654207 -0.25061476
-0.0007123996 0.050274838 -0.0019927686 -0.11569966 -0.025976112 -0.04044987 0.03158777 -0.09315224
-0.110693164 0.089387104 -0.034441788 0.004524754 -0.028574 -0.019920327 0.0025076228 -0.23668517
-0.016138023 0.039358843 -0.021016253 -0.09157901 -0.008238717 -0.03805044 0.06150589 -0.07827443
-0.118486635 0.09288775 -0.06512752 0.038157724 -0.04818807 0.015645485 0.02199682 -0.19492023
0.0020386614 0.048740845 -0.030988652 -0.12835509 -0.010267047 -0.03511541 0.044641074 0.05781446
-0.01128002 -0.023056913 0.02833934 0.02190688 0.062445857 0.004290656 0.10437157 -0.08955431
-0.015976043 0.037321564 -0.0135828825 0.031834412 0.011356166 0.045331903 0.057168163 -0.02939258
0.059181258 0.054184515 -0.00927876 0.041931503 0.050534144 0.01630846 0.10990013 -0.11307857
-0.015559356 0.08772754 -0.008512142 0.0022994508 -0.0074806833 0.013173074 0.09111348 0.011557385
0.0017395586 0.092857696 -1.7661674e-05 -0.002657566 0.03795992 0.005363473 0.07373788 -0.090498604
-0.06874251 0.046053853 -0.008184062 0.006804085 0.0139619615 0.01864437 0.060857784 0.006901977
-0.06327758 0.08369799 0.006747871 0.0437338 0.033663016 0.0061967643 0.08141617 -0.108568385
-0.007301711 0.058595285 0.00679134 0.040042613 0.03932961 0.06683789 0.06501879 0.0735239
-0.09594621 -0.013626675 0.00280668 0.050889656 0.06068097 -0.032272432 0.05714995 -0.09361441
-0.032788675 0.054823138 -0.00016124138 0.04653354 0.012179784 0.04145827 0.080189906 0.03357487
-0.10825694 -0.053476192 0.034129135 0.0088033425 0.06406676 -0.030627135 0.11421251 -0.087725006
0.0041202437 0.021906912 0.04741851 0.07815715 -0.026935592 0.03986227 0.10901624 0.05935669
-0.051159695 0.08971492 0.009634258 0.07811597 0.012201007 0.032531694 0.0781177 -0.15782931
0.042796902 0.07073405 -0.0005483342 0.091178976 -0.0110491635 -0.017170966 0.0636344 0.1014773
00000000: 0508 383e 8743 073e bcb2 bcbc 3c85 11bd
00000010: 8ca4 11bc 3e14 e23d 39e4 2a3d e4af 13be
00000020: d6c3 64ba 8a35 a6bd f07b 32bd 4eb5 bbbc
00000030: 2d46 4fbb 1b73 ffbc 7f88 3c3e 0578 223e
00000040: 3ed5 563d 12a4 99bd f5df fc3c a6fb f13b
00000050: c8d7 c5bb d773 b93d 8e98 88bd 3832 1cbe
00000060: 1831 00bc f8a1 a0bd f5be 17bd cbc7 fd3c
00000070: 689f 82ba d8f4 7cbd 1fbe 463e 6020 ff3d
00000080: af76 1fbe b888 c83a 82ff 17bd 37bb b9bd
00000090: 2d1f 9dbd a190 b9bd 652c 3b3d 9d5e 3cbe
000000a0: 56ec 993c 8ed1 06bc 7bb8 633d 297e a9bd
000000b0: be8b b33d 4a41 0e3d d673 dd3d f98f 87bd
000000c0: 1f17 0b3e 55e0 98bd c4c0 41bd 7ec6 1bbd
000000d0: 86e0 1abd 059c 80bd b296 90bc ba21 68be
000000e0: 4256 51bd 5c76 09bc 7989 ac3d 493f 89bd
000000f0: 932d ad3d 8874 983d 5308 383d 709b 80bd
00000100: 9483 903c 7ad7 80bb ec31 83bd 5726 91bc
00000110: c8c3 c7bc 5e43 65bd 6344 35bd 3816 6bbe
00000120: 1354 82bd bae4 a43b 5ee0 ff3c eed4 7fbd
00000130: a02c 8bbb bc10 243d febd 0b3d b255 21be
00000140: fa9c e8bd 92eb bcbd e929 61bd b320 5fbd
00000150: e73f f5ba 95a5 0ebd 708f 9fbc 70ca 6fbe
00000160: d4eb f6ba 8d73 383d 169e 9c3c 1aac 92bd
00000170: 8728 08bd a691 0b3c 65b8 cb3c cf40 dbbd
00000180: 44cc f8bd 06ee 87bc 5bc3 1fbd d83c 6e3c
00000190: 0e0b 81bc 4b96 2abc 3f27 9c3b 9450 80be
000001a0: 54c0 3aba fdec 4d3d 1c99 02bb f1f3 ecbd
000001b0: dbcb d4bc c3ae 25bd 2d62 013d 9ac6 bebd
000001c0: 19b3 e2bd 9610 b73d d512 0dbd 6344 943b
000001d0: 0514 eabc f42f a3bc ee56 243b 995d 72be
000001e0: e333 84bc bd36 213d 472a acbc c78d bbbd
000001f0: affb 06bc c7da 1bbd 9aed 7b3d 584e a0bd
00000200: 1fa9 f2bd ef3b be3d 9461 85bd 464b 1c3d
00000210: db60 45bd f62a 803c ad32 b43c 2b99 47be
00000220: 109b 053b 7ba4 473d eadb fdbc 846f 03be
00000230: 1e37 28bc 2dd5 0fbd 8fd9 363d dbce 6c3d
00000240: d5cf 38bc dae1 bcbc e727 e83c 0f76 b33c
00000250: 3ac7 7f3d a298 8c3b c3c0 d53d 4068 b7bd
00000260: 31e0 82bc 7fde 183d bd8a 5ebc cd64 023d
00000270: 360f 3a3c f2ad 393d 2a29 6a3d b5c8 f0bc
00000280: 0c68 723d 95f0 5d3d f105 18bc 5ec0 2b3d
00000290: e4fc 4e3d 5299 853c 5213 e13d bd95 e7bd
000002a0: abec 7ebc 7faa b33d 8376 0bbc 62b2 163b
000002b0: 8520 f5bb e1d3 573c b499 ba3d 305b 3d3c
000002c0: e701 e43a 2d2c be3d 2828 94b7 8f2a 2ebb
000002d0: dc7b 1b3d 13c0 af3b e303 973d 5557 b9bd
000002e0: e0c8 8cbd f7a2 3c3d 7216 06bc cdf4 de3b
000002f0: b6c0 643c 14bc 983c 0346 793d fb29 e23b
00000300: ad97 81bd da69 ab3d 3f1d dd3b 3722 333d
00000310: 3be2 093d 3a0e cb3b 85bd a63d 1a59 debd
00000320: 3143 efbb 9c01 703d e489 de3b b903 243d
00000330: 1618 213d 4ee2 883d 9228 853d b393 963d
00000340: 727f c4bd 6b42 5fbc 47f0 373b ac71 503d
00000350: 9c8c 783d 1930 04bd 1116 6a3d e9b8 bfbd
00000360: 6b4d 06bd 3a8e 603d e712 29b9 f499 3e3d
00000370: b78d 473c 26d0 293d 9b3a a43d ce85 093d
00000380: d1b5 ddbd da09 5bbd feca 0b3d e53b 103c
00000390: 6f35 833d c2e5 fabc 40e8 e93d 2ba9 b3bd
000003a0: 1c03 873b 2076 b33c e939 423d db10 a03d
000003b0: 08a8 dcbc 9f46 233d e843 df3d 0020 733d
000003c0: d48c 51bd 75bc b73d 02d9 1d3c 44fb 9f3d
000003d0: bce6 473c f43f 053d 2cfc 9f3d 029e 21be
000003e0: ce4b 2f3d 03dd 903d 16be 0fba 0bbc ba3d
000003f0: 8d07 35bc 20aa 8cbc c152 823d 55d3 cf3d

if_embedding.embedding.weight f4 [18, 16]
0.10720368 -0.15391284 -0.10259152 0.06925765 -0.08412838 -0.15925714 0.04452928 -0.08045753
-0.0036945394 0.07291821 -0.02722437 -0.03136419 0.016969431 0.052471593 -0.021277264 -0.20052625
-0.12471336 -0.15876856 0.008082739 -0.10382698 -0.10692698 -0.18262091 -0.11363165 -0.046479817
-0.069594726 0.06939455 0.023979649 -0.00772118 -0.015819531 -0.024234094 -0.006557607 -0.068109214
0.21567564 -0.19275665 0.061903596 -0.3901849 -0.082061306 -0.15534332 -0.1045244 -0.028190823
-0.12668496 0.0013472809 -0.021436702 -0.12997201 -0.08630594 -0.01790481 0.004130995 0.1885958
-0.07696518 -0.17019036 0.005239347 -0.26349467 -0.16020405 -0.15413404 -0.21166259 -0.075541236
-0.031950094 0.026640425 -0.02651976 0.019871822 -0.0016637603 0.07219569 -0.055267025 0.123200946
0.32279098 0.047940508 0.043591715 -0.08700551 -0.14106412 0.10749934 -0.08324933 -0.073240876
-0.026758956 0.039874442 0.020609813 0.11606819 -0.05321733 0.063110396 -0.023160461 -0.11407935
0.20052193 -0.06612804 -0.008855081 0.119269475 0.051182434 0.21532689 0.12670125 -0.06085167
-0.08800696 0.07003978 0.044086285 0.023137487 -0.045451146 0.07118908 -0.01727383 -0.1509596
-0.5397993 0.13386765 0.123058245 -0.0057494165 0.23775937 0.11893542 0.05081324 -0.022444475
-0.17660648 -0.062486824 0.16344102 0.0052496786 -0.21487276 0.06812658 -0.015317943 -0.09939709
0.38374355 0.013693476 0.09792438 0.072384946 0.1600156 0.10218067 -0.048744682 -0.05820775
-0.08715839 -0.013656432 0.05423583 -0.048732497 0.05513181 0.043650273 -0.009557263 0.13483241
0.2953922 -0.054973837 0.016297458 -0.04496331 0.09092633 -0.34809685 0.07618314 -0.12939924
-0.1966214 0.12118213 -0.036982734 0.089800775 0.20354563 -0.24140093 0.2907891 -0.1418496
0.051471982 0.1783255 0.048790716 -0.09894358 0.00034460958 0.13335079 0.13068704 -0.03006491
-0.09119058 -0.03626493 0.111637846 -0.030689945 -0.023546996 -0.19680959 -0.03588285 -0.0034210116
-0.15968494 0.14708526 -0.21656643 -0.19735561 0.58355504 -0.05379475 -0.047452077 -0.07484654
0.00023876398 -0.0019455622 -0.032225385 0.14792174 -0.021986926 0.06796743 0.009054962 -0.18712196
-0.0067953947 0.17744106 -0.058141634 -0.36594206 -0.00075200497 0.018069996 -0.17117512 -0.05033785
-0.0035992456 -0.07722483 0.1133875 -0.23379901 0.0052035614 -0.012361636 0.022397747 0.24414642
0.34621602 -0.085344106 -0.06748025 -0.07387032 0.07583707 0.17174347 -0.035002448 -0.10631045
0.085321166 0.0908376 0.052600972 -0.12935647 0.04789455 0.0435545 -0.026782088 -0.18917078
-0.245154 0.32477456 0.09666844 -0.11919911 -0.027985118 -0.013753226 -0.15810502 -0.1649333
0.042562675 0.058915596 0.035049055 -0.1845913 -0.0001961471 0.12214407 -0.072516255 -0.2453363
0.010310017 -0.19190866 -0.07654155 -0.0833752 0.24961394 -0.10993955 0.008450564 -0.060145564
-0.040754218 0.05232573 -0.005591612 0.12877151 0.015073797 0.015029144 0.035507485 -0.20922677
0.019179909 -0.03358523 0.0354017 -0.08266221 0.27881885 -0.008527189 0.08922787 -0.056414768
-0.0019237105 0.10762385 0.011315186 0.029861713 0.065498136 0.031503793 -0.035960555 -0.1899112
00000000: 9a8d db3d 549b 1dbe 811b d2bd f4d6 8d3d
00000010: 804b acbd 4e14 23be 5664 363d ebc6 a4bd
00000020: 1620 72bb 2456 953d a405 dfbc bd77 00bd
00000030: 7a03 8b3c 74ec 563d a84d aebc c156 4dbe
00000040: b869 ffbd 3a94 22be 776d 043c 3da3 d4bd
00000050: 88fc dabd fa00 3bbe b6b7 e8bd 9f61 3ebd
00000060: ae87 8ebd bb1e 8e3d f870 c43c f401 fdbb
00000070: f697 81bc 9486 c6bc 32e1 d6bb d87c 8bbd
00000080: 13da 5c3e 0062 45be a08e 7d3d 51c6 c7be
00000090: c20f a8bd 5212 1fbe e310 d6bd 71f0 e6bc
000000a0: b4b9 01be 3f97 b03a 069c afbc 6217 05be
000000b0: 2bc1 b0bd 1cad 92bc 4c5d 873b 421f 413e
000000c0: ec9f 9dbd 6246 2ebe d4ae ab3b c6e8 86be
000000d0: 880c 24be 50d5 1dbe 14be 58be 5db5 9abd
000000e0: 1ade 02bd 053d da3c f83f d9bc 3bca a23c
000000f0: 8812 daba 55db 933d ad5f 62bd c750 fc3d
00000100: dc44 a53e 445d 443d 3a8d 323d f22f b2bd
00000110: 1d73 10be 9d28 dc3d a07e aabd 50ff 95bd
00000120: 9935 dbbc 6253 233d e9d5 a83c 29b5 ed3d
00000130: 6afa 59bd 0640 813d 02bb bdbc 6fa2 e9bd
00000140: 9f55 4d3e 236e 87bd e714 11bc 8e43 f43d
00000150: aca4 513d a77e 5c3e f9bd 013e 9a3f 79bd
00000160: fe3c b4bd 0471 8f3d d293 343d d48a bd3c
00000170: fb2a 3abd 95cb 913d d981 8dbc 2795 1abe
00000180: 4930 0abf 9a14 093e f605 fc3d 9a65 bcbb
00000190: 3177 733e 6a94 f33d 8b21 503d 7add b7bc
000001a0: 54d8 34be 2ff2 7fbd 155d 273e 7f05 ac3b
000001b0: 9b07 5cbe f385 8b3d 1cf8 7abc b490 cbbd
000001c0: 097a c43e 9a5a 603c 948c c83d 8f3e 943d
000001d0: 21db 233e 1944 d13d 81a8 47bd 406b 6ebd
000001e0: 1980 b2bd 3abf 5fbc 6426 5e3d ba9b 47bd
000001f0: e5d1 613d a1ca 323d 1196 1cbc 8211 0a3e
00000200: a53d 973e 3f2c 61bd 3f82 853c 732b 38bd
00000210: 9537 ba3d c039 b2be e805 9c3d 3c81 04be
00000220: 1f57 49be 562e f83d 357b 17bd 78e9 b73d
00000230: 446e 503e ce31 77be 4fe2 943e 0641 11be
00000240: 49d4 523d f69a 363e c6d8 473d efa2 cabd
00000250: b7ac b439 1c8d 083e d3d2 053e b04a f6bc
00000260: 20c2 babd 898a 14bd 62a2 e43d 7b69 fbbc
00000270: a1e5 c0bc 7488 49be e5f9 12bd 0d33 60bb
00000280: 7384 23be 859d 163e 97c3 5dbe 9717 4abe
00000290: dd63 153f e257 5cbd 1c5d 42bd 2549 99bd
000002a0: b85c 7a39 3c02 ffba c4fe 03bd cc78 173e
000002b0: ed1d b4bc 8232 8b3d 435b 143c e69c 3fbe
000002c0: e7ab debb 1cb3 353e ec25 6ebd c25c bbbe
000002d0: 3322 45ba 8707 943c 8848 2fbe 102f 4ebd
000002e0: 52e1 6bbb 0d28 9ebd b537 e83d 0269 6fbe
000002f0: a382 aa3b 7688 4abc 7b7b b73c 8501 7a3e
00000300: 3a43 b13e e4c8 aebd 1633 8abd 5349 97bd
00000310: 7750 9b3d 85dd 2f3e ba5e 0fbd 4bb9 d9bd
00000320: ddbc ae3d 1009 ba3d 1e74 573d 0676 04be
00000330: 132d 443d 3466 323d 1c66 dbbc fcb5 41be
00000340: a609 7bbe da48 a63e 1afa c53d aa1e f4bd
00000350: 0c41 e5bc 3655 61bc 48e6 21be 46e4 28be
00000360: 3356 2e3d 7b51 713d 998f 0f3d 8005 3dbe
00000370: d6ac 4db9 ac26 fa3d 6783 94bd 7039 7bbe
00000380: 58eb 283c b483 44be d1c1 9cbd 9ec0 aabd
00000390: cc9a 7f3e fd27 e1bd 3c74 0a3c 325b 76bd
000003a0: e5ed 26bd 8153 563d d739 b7bb aedc 033e
000003b0: 16f8 763c cc3c 763c 4c70 113d 8b3f 56be
000003c0: 2f1f 9d3c ab90 09bd 5f01 113d ce4a a9bd
000003d0: 58c1 8e3e 9fb5 0bbc 1abd b63d 2c13 67bd
000003e0: 0325 fcba e569 dc3d 5463 393c 8da0 f43c
000003f0: e323 863d 1f0a 013d 604b 13bd 1578 42be

mlp.mlp.0.weight f4 [16, 16]
0.11509837 0.11349028 -0.19210975 0.13420852 0.16247529 0.13112395 -0.17172843 -0.087098405
0.12076079 -0.18259208 -0.20403562 0.13041931 -0.14218412 0.14874694 0.18927291 0.16290496
0.11620899 0.0927937 -0.2084001 0.14474049 0.17414965 0.13518234 -0.17109877 -0.10575987
0.13446733 -0.16000721 -0.20898882 0.1309074 -0.15158074 0.14745213 0.15632746 0.1399988
-0.09860526 -0.060557 0.15145992 -0.11026702 -0.18293327 -0.12412269 0.13645312 0.09029671
-0.1494876 0.30739877 0.23869301 -0.15426514 0.06011668 -0.106271446 -0.14357242 -0.094719514
-0.065038055 -0.1462186 0.26624513 -0.17924714 -0.24967566 -0.18302184 0.19645974 0.20649199
-0.17935574 0.1852852 0.16400814 -0.1729517 0.15407318 -0.23683532 -0.18919554 -0.13669918
0.12562352 0.11913551 -0.16946886 0.1679304 0.20458995 0.14529942 -0.15334523 -0.28066653
0.18612535 -0.1917902 -0.19628018 0.13608727 -0.12664872 0.16123715 0.13715066 0.13486283
0.19584724 0.123520456 -0.19959508 0.10006866 0.14009607 0.10270552 -0.20162325 -0.3928429
0.16123852 -0.21680239 -0.15887706 0.10496804 -0.1450511 0.12746115 0.32120174 0.15110579
-0.053256933 -0.089962915 0.18077938 -0.13970661 -0.15432991 -0.21659991 0.13609292 0.28990182
-0.20843117 0.2640716 0.17889419 -0.17961198 0.0849721 -0.2118872 -0.09128424 -0.12415254
-0.09023106 -0.10685519 0.230064 -0.18864582 -0.24196677 -0.20684308 0.19787477 0.2761414
-0.20092829 0.2088046 0.23005144 -0.20016742 0.14959076 -0.20958352 -0.14888054 -0.15017284
-0.1654991 -0.09517052 0.24664697 -0.208874 -0.24601291 -0.09983551 0.21020037 0.13238215
-0.14573938 0.22030742 0.19511668 -0.1501202 0.14350852 -0.16250719 -0.21717526 -0.11210028
-0.0032425646 -0.07135606 0.2635321 -0.17541187 -0.18348554 -0.17586844 0.18658453 0.31603315
-0.17490457 0.06744553 0.14428225 -0.12155887 0.13921192 -0.24549589 -0.104221635 -0.10191841
0.11918346 0.11214436 -0.22169673 0.14271761 0.17390044 0.1483106 -0.19808774 -0.033795822
0.11553567 -0.18671852 -0.2236635 0.13248773 -0.21464308 0.17281117 0.2032449 0.16278528
0.15416327 0.0937213 -0.24743599 0.17674166 0.20756261 0.17412648 -0.21248238 -0.19528295
0.17764227 -0.2199027 -0.233005 0.17862183 -0.20185749 0.18695502 0.22558355 0.16252
0.15203083 0.075695574 -0.2338898 0.18353066 0.24063937 0.2356941 -0.21046104 -0.086089075
0.17865963 -0.14455543 -0.2428886 0.18454298 -0.12699898 0.19114904 0.07139675 0.16882513
0.13812658 0.09282381 -0.20676862 0.15184951 0.16245157 0.14034754 -0.16383962 -0.0962084
0.13798375 -0.176237 -0.18482222 0.13194893 -0.12598477 0.15367563 0.15434413 0.1406166
0.006330516 0.023702662 0.0050196075 -0.023710947 -0.037605595 -0.008548766 -0.00399745 -0.46721336
0.058699857 0.08400531 -4.5637426e-06 -0.008078452 -0.04027027 0.01967372 -0.45553917 0.028134473
-0.11247505 -0.11854095 0.08846829 -0.16009293 -0.21102925 -0.25038984 0.18006101 0.24985385
-0.15595974 0.0893269 0.22553447 -0.12098847 0.13424334 -0.13515891 -0.07854008 -0.09729221
00000000: b2b8 eb3d 986d e83d 6bb8 44be f56d 093e
00000010: ec5f 263e 5b45 063e 94d9 2fbe a660 b2bd
00000020: 6f51 f73d 6bf9 3abe b7ee 50be a48c 053e
00000030: b798 11be 1e51 183e c2d0 413e 8fd0 263e
00000040: fbfe ed3d a00a be3d d666 55be da36 143e
00000050: 4954 323e 3d6d 0a3e 8434 2fbe a198 d8bd
00000060: ceb1 093e eed8 23be 2a01 56be 970c 063e
00000070: fb37 1bbe b1fd 163e 4e14 203e d85b 0f3e
00000080: 8ef1 c9bd 9e0a 78bd 4f18 1b3e add3 e1bd
00000090: dc52 3bbe 0934 febd 5eba 0b3e 7bed b83d
000000a0: 4713 19be 5f63 9d3e f16b 743e aef7 1dbe
000000b0: e83c 763d d8a4 d9bd a604 13be 4efc c1bd
000000c0: ac32 85bd 54ba 15be 4851 883e 908c 37be
000000d0: faaa 7fbe 146a 3bbe be2c 493e a372 533e
000000e0: 08a9 37be 67bb 3d3e c0f1 273e 401a 31be
000000f0: 5cc5 1d3e f584 72be 7abc 41be dffa 0bbe
00000100: 74a3 003e 51fd f33d 3f89 2dbe f2f5 2b3e
00000110: 0780 513e 5fc9 143e 8806 1dbe 86b3 8fbe
00000120: a597 3e3e a664 44be acfd 48be 765a 0b3e
00000130: 34b0 01be 5a1b 253e 3971 0c3e 7b19 0a3e
00000140: 2e8c 483e 4bf8 fc3d a762 4cbe ccf0 cc3d
00000150: 5875 0f3e 4657 d23d 5376 4ebe b422 c9be
00000160: b61b 253e 7201 5ebe abb0 22be 7cf9 d63d
00000170: 4788 14be 2d85 023e 8e74 a43e 7abb 1a3e
00000180: f123 5abd 7a3e b8bd 3b1e 393e 400f 0fbe
00000190: a908 1ebe 5ecc 5dbe f15b 0b3e 036e 943e
000001a0: fb6e 55be 6534 873e 0a30 373e 34ec 37be
000001b0: da05 ae3d f5f8 58be 3bf3 babd b043 febd
000001c0: 10cb b8bd e5d6 dabd e695 6b3e 5f2c 41be
000001d0: 23c6 77be acce 53be af9f 4a3e 6862 8d3e
000001e0: 25c0 4dbe e0d0 553e 9b92 6b3e b0f8 4cbe
000001f0: 522e 193e 109d 56be 2474 18be e9c6 19be
00000200: 9978 29be c3e8 c2bd 0691 7c3e 11e3 55be
00000210: cfea 7bbe 8f76 ccbd c43e 573e 308f 073e
00000220: b43c 15be 4598 613e abcc 473e 1cb9 19be
00000230: e6f3 123e 4968 26be 3163 5ebe d594 e5bd
00000240: 3581 54bb 2023 92bd aeed 863e 2b9f 33be
00000250: a2e3 3bbe db16 34be 0410 3f3e 19cf a13e
00000260: 2f1a 33be e220 8a3d babe 133e dbf3 f8bd
00000270: 928d 0e3e 4663 7bbe 2772 d5bd 99ba d0bd
00000280: 7516 f43d f1ab e53d 7804 63be 9124 123e
00000290: f512 323e bcde 173e 83d7 4abe 7d6d 0abd
000002a0: f79d ec3d 2433 3fbe 0b08 65be ddaa 073e
000002b0: 65cb 5bbe 69f5 303e 6e1f 503e 2fb1 263e
000002c0: fadc 1d3e f4f0 bf3d dc5f 7dbe c4fb 343e
000002d0: 4b8b 543e 364e 323e fb94 59be 41f8 47be
000002e0: dbe7 353e 2c2e 61be dd98 6ebe a4e8 363e
000002f0: bbb3 4ebe 2371 3f3e 60ff 663e a56b 263e
00000300: f8ad 1b3e 4806 9b3d cf80 6fbe 76ef 3b3e
00000310: 2b6a 763e cb59 713e 1983 57be 784f b0bd
00000320: 8df2 363e 5706 14be cab7 78be d6f8 3c3e
00000330: 050c 02be 93bc 433e 7638 923d 7fe0 2c3e
00000340: 0e71 0d3e 691a be3d 27bb 53be 707e 1b3e
00000350: b459 263e 44b7 0f3e 93c5 27be e908 c5bd
00000360: 9d4b 0d3e 7977 34be 0942 3dbe 9f1d 073e
00000370: 2702 01be 255d 1d3e 630c 1e3e ccfd 0f3e
00000380: 3870 cf3b 162c c23c 857b a43b 763d c2bc
00000390: 5308 1abd 2010 0cbc 0bfd 82bb 9736 efbe
000003a0: 436f 703d fa0a ac3d 4022 99b6 7c5b 04bc
000003b0: 70f2 24bd c82a a13c 6e3c e9be 447a e63c
000003c0: 5259 e6bd 99c5 f2bd dd2e b53d 67ef 23be
000003d0: 0d18 58be 1933 80be ea61 383e b0d9 7f3e
000003e0: e9b3 1fbe 06f1 b63d 82f2 663e cec8 f7bd
000003f0: 1677 093e 1967 0abe 9fd9 a0bd 2341 c7bd

mlp.mlp.0.bias f4 [16]
-0.111151226 0.10548869 -0.1600505 0.049060065 -0.08192434 0.18990275 -0.22754918 0.13848321
0.045013774 0.18292715 0.14515676 0.1863569 -0.23157115 -0.099383205 0.14416112 0.13150372
00000000: 41a3 e3bd 740a d83d 47e4 23be 35f3 483d
00000010: f3c7 a7bd de75 423e a702 69be 8bce 0d3e
00000020: 5d60 383d 4151 3b3e f9a3 143e 58d4 3e3e
00000030: fd20 6dbe 6c89 cbbd f99e 133e e9a8 063e

mlp.mlp.1.weight f4 [16]
0.91992104 1.1733702 0.9056011 0.8828826 0.9816694 0.8672716 0.87054795 0.9991144
0.7958452 0.84768236 0.92150617 1.0142016 0.89399165 1.1232059 0.73323786 0.78455895
00000000: f27f 6b3f ff30 963f 79d5 673f 9804 623f
00000010: b04e 7b3f 8305 5e3f 3bdc 5e3f f6c5 7f3f
00000020: 83bc 4b3f b601 593f d4e7 6b3f 5cd1 813f
00000030: a3dc 643f 36c5 8f3f 7ab5 3b3f dbd8 483f

mlp.mlp.1.bias f4 [16]
-0.6326641 -0.10088436 0.17380898 0.2012842 -0.31086808 -0.24584095 0.22971928 0.3101588
0.15491503 0.17457223 -0.80451834 -0.5269457 -0.45053363 -0.30606842 -0.45616642 0.14652963
00000000: 46f6 21bf 769c cebd fbfa 313e 721d 4e3e
00000010: 1a2a 9fbe bbbd 7bbe 883b 6b3e 22cd 9e3e
00000020: 0ca2 1e3e 10c3 323e eaf4 4dbf eae5 06bf
00000030: 58ac e6be 00b5 9cbe a58e e9be dd0b 163e

mlp.mlp.1.running_mean f4 [16]
-0.60243756 -0.39020294 0.3104696 0.6820246 -0.64600694 -0.42834765 0.33853555 0.79771
0.6277157 0.7435961 -0.37675563 -0.45917884 -0.79474914 -0.58574873 0.16147408 0.6503521
00000000: 5939 1abf aec8 c7be dff5 9e3e 2a99 2e3f
00000010: b660 25bf 6250 dbbe 8854 ad3e b936 4c3f
00000020: fab1 203f 505c 3e3f 1de6 c0be 7d19 ebbe
00000030: ae74 4bbf a1f3 15bf 7659 253e 7a7d 263f

mlp.mlp.1.running_var f4 [16]
0.985277 0.98908305 0.96938944 1.651693 1.3974893 1.9410752 1.4403661 1.8245168
1.3994694 1.3531287 1.0755455 1.7267833 1.2498196 0.95919496 0.25710335 1.1812484
00000000: 1d3b 7c3f 8c34 7d3f e829 783f ad6a d33f
00000010: eee0 b23f 2775 f83f eb5d b83f c489 e93f
00000020: d021 b33f 5233 ad3f 7aab 893f 3c07 dd3f
00000030: 17fa 9f3f cd8d 753f 0da3 833e 2633 973f

mlp.mlp.4.weight f4 [24, 16]
0.22959138 0.052506987 -0.048620556 -0.12862751 0.15004383 0.15689188 -0.20496677 -0.01748158
0.0097880475 -0.08470254 0.36364126 0.17991783 0.20063967 0.03883219 0.32966593 0.029114576
0.17415176 0.03918072 -0.14489453 -0.04015856 0.10901596 0.12109746 -0.1288806 -0.02494328
-0.16410525 -0.011278989 0.44509602 0.17796715 0.21519847 -0.008836699 0.38247576 -0.21335132
0.29482806 -0.09772829 -0.17026687 -0.07485009 0.07026908 0.12844762 -0.10510419 -0.15068807
-0.060132947 -0.007544062 0.31812656 0.2668133 0.2302262 -0.054443736 0.23356351 -0.041532934
-0.36726043 -0.019053647 -0.020217856 0.03080792 -0.061069235 -0.07788812 0.19694783 0.06972233
0.28085968 0.12495751 -0.52963865 -0.17359546 -0.08614462 -0.049386382 0.051786 0.0021467102
-0.18358578 -0.07586909 0.06481162 0.0013930257 -0.25723556 -0.23990595 0.15761884 -0.060421802
0.09164838 0.19678843 -0.17776379 -0.37021616 -0.21313101 -0.19664247 0.14758614 0.16584925
-0.3397381 -0.0039925356 0.09710609 0.14864857 -0.08128756 -0.06141884 0.12154626 0.027173212
0.25383738 0.083605126 -0.6075637 -0.17222893 -0.081658475 -0.034557782 0.032796647 0.11898768
-0.1517208 -0.16395271 0.01042799 -0.08672158 -0.3542249 -0.34756982 0.18184076 0.105063796
0.23821974 0.08009795 0.050206147 -0.15752555 -0.19700705 -0.27359426 0.19581322 0.18104337
-0.07170027 0.0040301667 0.29381973 0.35529423 -0.03211576 -0.026521118 -0.30573812 -0.27659157
-0.083136305 0.033411168 -0.10057019 -0.031987794 -0.031734597 -0.0136911655 -0.07847053 0.14303541
-0.22456475 -0.16972324 0.15394488 0.10172597 -0.30449417 -0.23019767 0.0647969 0.07237245
0.053907674 0.08073 -0.08203433 -0.23317468 -0.39397863 -0.36303675 0.12318009 0.1300607
0.2568488 -0.056317188 -0.18027386 -0.08340337 0.070450686 0.123685524 -0.06459474 -0.034116574
-0.005950269 -0.11629417 0.26978862 0.13614072 0.17814553 -0.019867612 0.25509563 -0.13892685
-0.21161021 -0.042539366 0.05917417 0.116042234 -0.16904134 -0.21473159 0.1196656 -0.034556814
0.1496718 0.092015356 -0.0482183 -0.26641884 -0.3213676 -0.16150233 0.053169724 0.1546467
-0.11884894 -0.139029 0.04069155 -0.0033610668 -0.34855077 -0.30550206 0.08470812 0.08676501
0.14441809 0.07472537 0.10130102 -0.1890877 -0.29946625 -0.2748878 0.14417072 0.13289715
-0.16648081 -0.09556036 0.09569629 0.15935233 -0.2335474 -0.250577 0.17675993 -0.08306357
0.0833743 0.21893266 -0.0659862 -0.3339434 -0.26993892 -0.18190922 0.1274983 0.11620115
0.2805942 -0.12213093 -0.24259235 -0.023705384 0.10381339 0.08037168 -0.050490215 -0.14430459
-0.13849057 -0.05823674 0.38376904 0.254482 0.22857785 0.0014739261 0.26919687 -0.057373583
-0.118886 -0.08072475 0.036940943 0.089092284 -0.28131765 -0.32875848 0.19144487 0.030694526
0.10958186 0.07400372 -0.11722642 -0.24310404 -0.13936771 -0.21998149 0.14926475 0.044565056
-0.4880147 -0.058018666 0.114696555 0.11585265 -0.14114736 -0.13794269 0.17944147 -0.07623404
0.20833376 0.06742503 -0.25152594 -0.4669018 -0.11858043 -0.14368437 0.07166713 -0.0039178105
00000000: 011a 6b3e 9111 573d 5926 47bd eeb6 03be
00000010: 17a5 193e 44a8 203e cfe2 51be 8835 8fbc
00000020: 0c5e 203c 8678 adbd 302f ba3e 613c 383e
00000030: 7c74 4d3e 810e 1f3d f9c9 a83e b181 ee3c
00000040: d754 323e f67b 203d 3b5f 14be 4d7d 24bd
00000050: c243 df3d f201 f83d 47f9 03be d955 ccbc
00000060: 350b 28be 82cb 38bc a0e3 e33e 053d 363e
00000070: fd5c 5c3e cdc7 10bc ddd3 c33e c578 5abe
00000080: b4f3 963e c525 c8bd 705a 2ebe 014b 99bd
00000090: 3ce9 8f3d c687 033e de40 d7bd f94d 1abe
000000a0: f74d 76bd 2e34 f7bb 7ce1 a23e c19b 883e
000000b0: 6bc0 6b3e 6500 5fbd 462b 6f3e 701e 2abd
000000c0: 8f09 bcbe 6516 9cbc eb9f a5bc e460 fc3c
000000d0: bc23 7abd cf83 9fbd b1ac 493e 95ca 8e3d
000000e0: d7cc 8f3e b9e9 ff3d 6696 07bf 02c3 31be
000000f0: 976c b0bd 6049 4abd 8f1d 543d d2af 0c3b
00000100: e9fd 3bbe 4161 9bbd f4bb 843d 3096 b63a
00000110: 61b4 83be e8a9 75be d566 213e da7c 77bd
00000120: 25b2 bb3d e882 493e b607 36be f98c bdbe
00000130: 043f 5abe a55c 49be d220 173e 63d4 293e
00000140: 27f2 adbe d1d3 82bb 8fdf c63d 5537 183e
00000150: 187a a6bd 5292 7bbd 3fed f83d 5b9a de3c
00000160: f9f6 813e 2a39 ab3d 4b89 1bbf c85c 30be
00000170: 8f3c a7bd 768c 0dbd c755 063d d0af f33d
00000180: b35c 1bbe 38e3 27be 29da 2a3c 159b b1bd
00000190: f75c b5be acf4 b1be 7734 3a3e b02b d73d
000001a0: e0ef 733e 650a a43d f6a4 4d3d 614e 21be
000001b0: 37bc 49be 8c14 8cbe 4383 483e 6f63 393e
000001c0: 97d7 92bd 7d0f 843b 8a6f 963e 20e9 b53e
000001d0: d18b 03bd d142 d9bc b589 9cbe 699d 8dbe
000001e0: 5e43 aabd 26da 083d bef7 cdbd a205 03bd
000001f0: 23fc 01bd e950 60bc 28b5 a0bd e077 123e
00000200: 4df4 65be eecb 2dbe baa3 1d3e b555 d03d
00000210: a9e6 9bbe f0b8 6bbe 3db4 843d 0238 943d
00000220: 4bce 5c3d c555 a53d 9d01 a8bd 58c5 6ebe
00000230: 91b7 c9be f4df b9be d845 fc3d a22e 053e
00000240: b081 833e daac 66bd b699 38be 63cf aabd
00000250: 7348 903d d64e fd3d 3f4a 84bd d2bd 0bbd
00000260: 79fa c2bb a32b eebd bc21 8a3e 7968 0b3e
00000270: c86b 363e 67c1 a2bc e59b 823e d742 0ebe
00000280: 59b0 58be c23d 2ebd 9d60 723d 8da7 ed3d
00000290: 2c19 2dbe 99e2 5bbe 3d13 f53d 728b 0dbd
000002a0: 9043 193e 8c72 bc3d 8d80 45bd 0d68 88be
000002b0: 4b8a a4be de60 25be 7fc8 593d b45b 1e3e
000002c0: 1367 f3bd 9e5d 0ebe 2fac 263d 5845 5cbb
000002d0: 3f75 b2be c46a 9cbe 737b ad3d dbb1 b13d
000002e0: 56e2 133e 9d09 993d e976 cf3d 35a0 41be
000002f0: a453 99be 18be 8cbe 7da1 133e 3116 083e
00000300: f279 2abe 26b5 c3bd 6bfc c33d 422d 233e
00000310: 0d27 6fbe a14b 80be 8e00 353e 3c1d aabd
00000320: 25c0 aa3d e22f 603e c623 87bd a1fa aabe
00000330: 6f35 8abe 6946 3abe ea8e 023e defa ed3d
00000340: 0baa 8f3e c81f fabd 216a 78be cb31 c2bc
00000350: 1d9c d43d e899 a43d d4ce 4ebd 95c4 13be
00000360: 79d0 0dbe a689 6ebd 607d c43e 774b 823e
00000370: 5010 6a3e c130 c13a 2cd4 893e 9000 6bbd
00000380: 817a f3bd 0553 a5bd 634f 173d 0476 b63d
00000390: de08 90be 0853 a8be 200a 443e 1673 fb3c
000003a0: 746c e03d 438f 973d 6814 f0bd 44f0 78be
000003b0: 69b6 0ebe d442 61be dcd8 183e d989 363d
000003c0: 10dd f9be fba4 6dbd 07e6 ea3d 2744 ed3d
000003d0: ef88 10be d940 0dbe 81bf 373e 9820 9cbd
000003e0: 7255 553e 2216 8a3d 02c8 80be c10d efbe
000003f0: 4cda f2bd ff21 13be 37c6 923d fa60 80bb

mlp.mlp.4.bias f4 [24]
0.030183485 -0.008263855 0.040150397 -0.054275073 -0.092265025 -0.21035422 0.08533189 -0.17332578
-0.20931254 -0.12793656 -0.25477347 0.20879745 0.13428912 -0.11185951 0.17536454 0.08001341
0.16097143 -0.00045726547 0.039215893 -0.064291485 0.19108194 -0.16840672 -0.041805256 -0.018810472
00000000: 5b43 f73c 1f65 07bc be74 243d 8a4f 5ebd
00000010: 72f5 bcbd 1967 57be 7cc2 ae3d 507c 31be
00000020: 0756 56be cd01 03be ab71 82be 00cf 553e
00000030: 1683 093e 9916 e5bd c392 333e 12de a33d
00000040: b2d5 243e 22bd efb9 d8a0 203d 41ab 83bd
00000050: fcaa 433e d072 2cbe fd3b 2bbd 6b18 9abc

mlp.mlp.5.weight f4 [24]
0.91240764 0.98258823 0.9980419 0.9966016 1.2923161 0.94746 1.2866427 1.1920685
1.2556808 0.9200263 1.308385 1.2901454 1.3746214 0.9430382 1.2908204 1.1912483
0.97192675 1.2101152 1.4221394 0.91672385 1.2662501 1.0719357 1.2093946 0.962951
00000000: 8c93 693f e78a 7b3f ad7f 7f3f 4821 7f3f
00000010: 9d6a a53f bd8c 723f b5b0 a43f b395 983f
00000020: 26ba a03f d886 6b3f 2979 a73f 7c23 a53f
00000030: 98f3 af3f f46a 713f 9a39 a53f d37a 983f
00000040: 31d0 783f 0ee5 9a3f aa08 b63f 6aae 6a3f
00000050: 7c14 a23f 3035 893f 71cd 9a3f f583 763f

mlp.mlp.5.bias f4 [24]
-0.093596615 -0.1925571 -0.18529755 0.53843963 0.22319037 0.67507315 0.1493894 0.51688045
0.13661005 -0.2468557 0.31782752 0.11676995 0.28608614 -0.16545585 0.2114637 0.36764792
-0.11081747 0.37250617 -0.22020866 -0.18335485 -0.47381023 0.4852213 -0.4700732 -0.16404888
00000000: 95af bfbd b02d 45be a4be 3dbe 2ed7 093f
00000010: 048c 643e 98d1 2c3f 89f9 183e 4752 043f
00000020: 81e3 0b3e bec7 7cbe 4aba a23e 1525 ef3d
00000030: e279 923e 426d 29be f189 583e 593c bc3e
00000040: 45f4 e2bd 21b9 be3e 617e 61be 60c1 3bbe
00000050: 4197 f2be ed6e f83e 6fad f0be 6efc 27be

mlp.mlp.5.running_mean f4 [24]
0.098938756 -0.066501014 -0.072192505 0.04321617 -0.1827501 -0.040013097 0.016402707 -0.19824882
-0.36193395 -0.23755257 -0.2684644 0.084282376 0.12425612 -0.2522046 0.10768443 0.00908391
0.23365481 -0.022057433 0.04524842 -0.09639024 0.46519682 -0.10192216 0.07091509 -0.075333014
00000000: 67a0 ca3d af31 88bd aad9 93bd 7003 313d
00000010: d822 3bbe c6e4 23bd f85e 863c bd01 4bbe
00000020: 684f b9be fb40 73be 2a74 89be 3d9c ac3d
00000030: fe79 fe3d f620 81be a889 dc3d aed4 143c
00000040: 3543 6f3e cab1 b4bc 6856 393d 3f68 c5bd
00000050: 472e ee3e 91bc d0bd ee3b 913d 3248 9abd

mlp.mlp.5.running_var f4 [24]
0.46978748 0.51831543 0.39264303 0.54106635 0.86676306 0.6285441 1.0234448 0.08120143
1.2781229 0.32077214 0.68444335 0.8856522 0.93001354 0.46429443 0.77291393 0.84851533
0.40512037 0.7260952 0.07113155 0.33971137 0.078095004 0.8425856 0.04460493 0.46999764
00000000: fc87 f03e 52b0 043f 8208 c93e 5383 0a3f
00000010: 2fe4 5d3f 44e8 203f 3d00 833f ef4c a63d
00000020: 8899 a33f 3f3c a43e ae37 2f3f 1aba 623f
00000030: 5e15 6e3f 00b8 ed3e b0dd 453f 4d38 593f
00000040: f06b cf3e 60e1 393f 6bad 913d a6ee ad3e
00000050: 46f0 9f3d b1b3 573f a9b3 363d 88a3 f03e
